{
  "format": "graph-model",
  "generatedBy": "https://github.com/dlunion/DBFace",
  "convertedBy": "https://github.com/vladmandic",
  "signature":
  {
      "inputs":
      {
          "inputs": {"name":"inputs:0","dtype":"DT_FLOAT","tensorShape":{"dim":[{"size":"1"},{"size":"480"},{"size":"640"},{"size":"3"}]}}
      },
      "outputs":
      {
          "Identity_1": {"name":"Identity_1:0","dtype":"DT_FLOAT","tensorShape":{"dim":[{"size":"1"},{"size":"120"},{"size":"160"},{"size":"4"}]}},
          "Identity_2": {"name":"Identity_2:0","dtype":"DT_FLOAT","tensorShape":{"dim":[{"size":"1"},{"size":"120"},{"size":"160"},{"size":"1"}]}},
          "Identity": {"name":"Identity:0","dtype":"DT_FLOAT","tensorShape":{"dim":[{"size":"1"},{"size":"120"},{"size":"160"},{"size":"10"}]}}
      }
  },
  "modelTopology":
  {
      "node":
      [
          {"name":"model/conv2d_63/Conv2D/ReadVariableOp","op":"Const","attr":{"dtype":{"type":"DT_FLOAT"},"value":{"tensor":{"dtype":"DT_FLOAT","tensorShape":{"dim":[{"size":"1"},{"size":"1"},{"size":"48"},{"size":"10"}]}}}}},
          {"name":"model/tf.math.add_125/Add/y","op":"Const","attr":{"value":{"tensor":{"dtype":"DT_FLOAT","tensorShape":{"dim":[{"size":"10"}]}}},"dtype":{"type":"DT_FLOAT"}}},
          {"name":"model/conv2d_64/Conv2D/ReadVariableOp","op":"Const","attr":{"value":{"tensor":{"dtype":"DT_FLOAT","tensorShape":{"dim":[{"size":"1"},{"size":"1"},{"size":"48"},{"size":"4"}]}}},"dtype":{"type":"DT_FLOAT"}}},
          {"name":"model/tf.math.add_126/Add/y","op":"Const","attr":{"value":{"tensor":{"dtype":"DT_FLOAT","tensorShape":{"dim":[{"size":"4"}]}}},"dtype":{"type":"DT_FLOAT"}}},
          {"name":"model/tf.math.multiply_52/Mul/y","op":"Const","attr":{"dtype":{"type":"DT_FLOAT"},"value":{"tensor":{"dtype":"DT_FLOAT","tensorShape":{"dim":[{"size":"1"},{"size":"1"},{"size":"1"},{"size":"1"}]}}}}},
          {"name":"model/zero_padding2d_19/Pad/paddings","op":"Const","attr":{"value":{"tensor":{"dtype":"DT_INT32","tensorShape":{"dim":[{"size":"4"},{"size":"2"}]}}},"dtype":{"type":"DT_INT32"}}},
          {"name":"model/conv2d_58/Conv2D/ReadVariableOp","op":"Const","attr":{"dtype":{"type":"DT_FLOAT"},"value":{"tensor":{"dtype":"DT_FLOAT","tensorShape":{"dim":[{"size":"3"},{"size":"3"},{"size":"24"},{"size":"24"}]}}}}},
          {"name":"model/tf.math.add_115/Add/y","op":"Const","attr":{"value":{"tensor":{"dtype":"DT_FLOAT","tensorShape":{"dim":[{"size":"24"}]}}},"dtype":{"type":"DT_FLOAT"}}},
          {"name":"model/tf.math.add_116/Add/y","op":"Const","attr":{"value":{"tensor":{"dtype":"DT_FLOAT","tensorShape":{"dim":[{"size":"1"},{"size":"1"},{"size":"1"},{"size":"1"}]}}},"dtype":{"type":"DT_FLOAT"}}},
          {"name":"model/tf.math.multiply_56/Mul/y","op":"Const","attr":{"value":{"tensor":{"dtype":"DT_FLOAT","tensorShape":{"dim":[{"size":"1"},{"size":"1"},{"size":"1"},{"size":"1"}]}}},"dtype":{"type":"DT_FLOAT"}}},
          {"name":"model/zero_padding2d_21/Pad/paddings","op":"Const","attr":{"dtype":{"type":"DT_INT32"},"value":{"tensor":{"dtype":"DT_INT32","tensorShape":{"dim":[{"size":"4"},{"size":"2"}]}}}}},
          {"name":"model/conv2d_60/Conv2D/ReadVariableOp","op":"Const","attr":{"value":{"tensor":{"dtype":"DT_FLOAT","tensorShape":{"dim":[{"size":"3"},{"size":"3"},{"size":"12"},{"size":"12"}]}}},"dtype":{"type":"DT_FLOAT"}}},
          {"name":"model/tf.math.add_119/Add/y","op":"Const","attr":{"value":{"tensor":{"dtype":"DT_FLOAT","tensorShape":{"dim":[{"size":"12"}]}}},"dtype":{"type":"DT_FLOAT"}}},
          {"name":"model/tf.math.add_120/Add/y","op":"Const","attr":{"value":{"tensor":{"dtype":"DT_FLOAT","tensorShape":{"dim":[{"size":"1"},{"size":"1"},{"size":"1"},{"size":"1"}]}}},"dtype":{"type":"DT_FLOAT"}}},
          {"name":"model/tf.math.multiply_59/Mul/y","op":"Const","attr":{"dtype":{"type":"DT_FLOAT"},"value":{"tensor":{"dtype":"DT_FLOAT","tensorShape":{"dim":[{"size":"1"},{"size":"1"},{"size":"1"},{"size":"1"}]}}}}},
          {"name":"model/lambda_3/Split/split_dim","op":"Const","attr":{"value":{"tensor":{"dtype":"DT_INT32","tensorShape":{}}},"dtype":{"type":"DT_INT32"}}},
          {"name":"model/tf.math.multiply_54/Mul/y","op":"Const","attr":{"value":{"tensor":{"dtype":"DT_FLOAT","tensorShape":{"dim":[{"size":"1"},{"size":"1"},{"size":"1"},{"size":"1"}]}}},"dtype":{"type":"DT_FLOAT"}}},
          {"name":"model/tf.math.multiply_48/Mul/y","op":"Const","attr":{"dtype":{"type":"DT_FLOAT"},"value":{"tensor":{"dtype":"DT_FLOAT","tensorShape":{"dim":[{"size":"1"},{"size":"1"},{"size":"1"},{"size":"1"}]}}}}},
          {"name":"model/tf.math.multiply_44/Mul/y","op":"Const","attr":{"value":{"tensor":{"dtype":"DT_FLOAT","tensorShape":{"dim":[{"size":"1"},{"size":"1"},{"size":"1"},{"size":"1"}]}}},"dtype":{"type":"DT_FLOAT"}}},
          {"name":"model/tf.math.multiply_40/Mul/y","op":"Const","attr":{"dtype":{"type":"DT_FLOAT"},"value":{"tensor":{"dtype":"DT_FLOAT","tensorShape":{"dim":[{"size":"1"},{"size":"1"},{"size":"1"},{"size":"1"}]}}}}},
          {"name":"model/tf.math.multiply_38/Mul/y","op":"Const","attr":{"value":{"tensor":{"dtype":"DT_FLOAT","tensorShape":{"dim":[{"size":"1"},{"size":"1"},{"size":"1"},{"size":"1"}]}}},"dtype":{"type":"DT_FLOAT"}}},
          {"name":"model/tf.math.multiply_33/Mul/y","op":"Const","attr":{"dtype":{"type":"DT_FLOAT"},"value":{"tensor":{"dtype":"DT_FLOAT","tensorShape":{"dim":[{"size":"1"},{"size":"1"},{"size":"1"},{"size":"1"}]}}}}},
          {"name":"model/tf.math.reduce_mean_7/Mean/reduction_indices","op":"Const","attr":{"dtype":{"type":"DT_INT32"},"value":{"tensor":{"dtype":"DT_INT32","tensorShape":{"dim":[{"size":"2"}]}}}}},
          {"name":"model/conv2d_47/Conv2D/ReadVariableOp","op":"Const","attr":{"value":{"tensor":{"dtype":"DT_FLOAT","tensorShape":{"dim":[{"size":"1"},{"size":"1"},{"size":"160"},{"size":"40"}]}}},"dtype":{"type":"DT_FLOAT"}}},
          {"name":"model/tf.math.add_91/Add/y","op":"Const","attr":{"dtype":{"type":"DT_FLOAT"},"value":{"tensor":{"dtype":"DT_FLOAT","tensorShape":{"dim":[{"size":"40"}]}}}}},
          {"name":"model/conv2d_48/Conv2D/ReadVariableOp","op":"Const","attr":{"value":{"tensor":{"dtype":"DT_FLOAT","tensorShape":{"dim":[{"size":"1"},{"size":"1"},{"size":"40"},{"size":"160"}]}}},"dtype":{"type":"DT_FLOAT"}}},
          {"name":"model/tf.math.add_92/Add/y","op":"Const","attr":{"value":{"tensor":{"dtype":"DT_FLOAT","tensorShape":{"dim":[{"size":"160"}]}}},"dtype":{"type":"DT_FLOAT"}}},
          {"name":"model/conv2d_45/Conv2D/ReadVariableOp","op":"Const","attr":{"value":{"tensor":{"dtype":"DT_FLOAT","tensorShape":{"dim":[{"size":"1"},{"size":"1"},{"size":"160"},{"size":"960"}]}}},"dtype":{"type":"DT_FLOAT"}}},
          {"name":"model/tf.math.add_86/Add/y","op":"Const","attr":{"value":{"tensor":{"dtype":"DT_FLOAT","tensorShape":{"dim":[{"size":"960"}]}}},"dtype":{"type":"DT_FLOAT"}}},
          {"name":"model/tf.math.add_87/Add/y","op":"Const","attr":{"dtype":{"type":"DT_FLOAT"},"value":{"tensor":{"dtype":"DT_FLOAT","tensorShape":{"dim":[{"size":"1"},{"size":"1"},{"size":"1"},{"size":"1"}]}}}}},
          {"name":"model/zero_padding2d_15/Pad/paddings","op":"Const","attr":{"value":{"tensor":{"dtype":"DT_INT32","tensorShape":{"dim":[{"size":"4"},{"size":"2"}]}}},"dtype":{"type":"DT_INT32"}}},
          {"name":"model/depthwise_conv2d_14/depthwise/ReadVariableOp","op":"Const","attr":{"dtype":{"type":"DT_FLOAT"},"value":{"tensor":{"dtype":"DT_FLOAT","tensorShape":{"dim":[{"size":"5"},{"size":"5"},{"size":"960"},{"size":"1"}]}}}}},
          {"name":"model/tf.math.add_88/Add/y","op":"Const","attr":{"dtype":{"type":"DT_FLOAT"},"value":{"tensor":{"dtype":"DT_FLOAT","tensorShape":{"dim":[{"size":"960"}]}}}}},
          {"name":"model/tf.math.add_89/Add/y","op":"Const","attr":{"value":{"tensor":{"dtype":"DT_FLOAT","tensorShape":{"dim":[{"size":"1"},{"size":"1"},{"size":"1"},{"size":"1"}]}}},"dtype":{"type":"DT_FLOAT"}}},
          {"name":"model/conv2d_46/Conv2D/ReadVariableOp","op":"Const","attr":{"dtype":{"type":"DT_FLOAT"},"value":{"tensor":{"dtype":"DT_FLOAT","tensorShape":{"dim":[{"size":"1"},{"size":"1"},{"size":"960"},{"size":"160"}]}}}}},
          {"name":"model/tf.math.add_90/Add/y","op":"Const","attr":{"dtype":{"type":"DT_FLOAT"},"value":{"tensor":{"dtype":"DT_FLOAT","tensorShape":{"dim":[{"size":"160"}]}}}}},
          {"name":"model/tf.math.multiply_29/Mul/y","op":"Const","attr":{"value":{"tensor":{"dtype":"DT_FLOAT","tensorShape":{"dim":[{"size":"1"},{"size":"1"},{"size":"1"},{"size":"1"}]}}},"dtype":{"type":"DT_FLOAT"}}},
          {"name":"model/tf.math.reduce_mean_6/Mean/reduction_indices","op":"Const","attr":{"value":{"tensor":{"dtype":"DT_INT32","tensorShape":{"dim":[{"size":"2"}]}}},"dtype":{"type":"DT_INT32"}}},
          {"name":"model/conv2d_43/Conv2D/ReadVariableOp","op":"Const","attr":{"value":{"tensor":{"dtype":"DT_FLOAT","tensorShape":{"dim":[{"size":"1"},{"size":"1"},{"size":"160"},{"size":"40"}]}}},"dtype":{"type":"DT_FLOAT"}}},
          {"name":"model/tf.math.add_84/Add/y","op":"Const","attr":{"value":{"tensor":{"dtype":"DT_FLOAT","tensorShape":{"dim":[{"size":"40"}]}}},"dtype":{"type":"DT_FLOAT"}}},
          {"name":"model/conv2d_44/Conv2D/ReadVariableOp","op":"Const","attr":{"dtype":{"type":"DT_FLOAT"},"value":{"tensor":{"dtype":"DT_FLOAT","tensorShape":{"dim":[{"size":"1"},{"size":"1"},{"size":"40"},{"size":"160"}]}}}}},
          {"name":"model/tf.math.add_85/Add/y","op":"Const","attr":{"dtype":{"type":"DT_FLOAT"},"value":{"tensor":{"dtype":"DT_FLOAT","tensorShape":{"dim":[{"size":"160"}]}}}}},
          {"name":"model/conv2d_41/Conv2D/ReadVariableOp","op":"Const","attr":{"value":{"tensor":{"dtype":"DT_FLOAT","tensorShape":{"dim":[{"size":"1"},{"size":"1"},{"size":"160"},{"size":"672"}]}}},"dtype":{"type":"DT_FLOAT"}}},
          {"name":"model/tf.math.add_79/Add/y","op":"Const","attr":{"dtype":{"type":"DT_FLOAT"},"value":{"tensor":{"dtype":"DT_FLOAT","tensorShape":{"dim":[{"size":"672"}]}}}}},
          {"name":"model/tf.math.add_80/Add/y","op":"Const","attr":{"value":{"tensor":{"dtype":"DT_FLOAT","tensorShape":{"dim":[{"size":"1"},{"size":"1"},{"size":"1"},{"size":"1"}]}}},"dtype":{"type":"DT_FLOAT"}}},
          {"name":"model/zero_padding2d_14/Pad/paddings","op":"Const","attr":{"value":{"tensor":{"dtype":"DT_INT32","tensorShape":{"dim":[{"size":"4"},{"size":"2"}]}}},"dtype":{"type":"DT_INT32"}}},
          {"name":"model/depthwise_conv2d_13/depthwise/ReadVariableOp","op":"Const","attr":{"value":{"tensor":{"dtype":"DT_FLOAT","tensorShape":{"dim":[{"size":"5"},{"size":"5"},{"size":"672"},{"size":"1"}]}}},"dtype":{"type":"DT_FLOAT"}}},
          {"name":"model/tf.math.add_81/Add/y","op":"Const","attr":{"value":{"tensor":{"dtype":"DT_FLOAT","tensorShape":{"dim":[{"size":"672"}]}}},"dtype":{"type":"DT_FLOAT"}}},
          {"name":"model/tf.math.add_82/Add/y","op":"Const","attr":{"dtype":{"type":"DT_FLOAT"},"value":{"tensor":{"dtype":"DT_FLOAT","tensorShape":{"dim":[{"size":"1"},{"size":"1"},{"size":"1"},{"size":"1"}]}}}}},
          {"name":"model/conv2d_42/Conv2D/ReadVariableOp","op":"Const","attr":{"dtype":{"type":"DT_FLOAT"},"value":{"tensor":{"dtype":"DT_FLOAT","tensorShape":{"dim":[{"size":"1"},{"size":"1"},{"size":"672"},{"size":"160"}]}}}}},
          {"name":"model/tf.math.add_83/Add/y","op":"Const","attr":{"value":{"tensor":{"dtype":"DT_FLOAT","tensorShape":{"dim":[{"size":"160"}]}}},"dtype":{"type":"DT_FLOAT"}}},
          {"name":"model/conv2d_49/Conv2D/ReadVariableOp","op":"Const","attr":{"value":{"tensor":{"dtype":"DT_FLOAT","tensorShape":{"dim":[{"size":"1"},{"size":"1"},{"size":"160"},{"size":"960"}]}}},"dtype":{"type":"DT_FLOAT"}}},
          {"name":"model/tf.math.add_94/Add/y","op":"Const","attr":{"value":{"tensor":{"dtype":"DT_FLOAT","tensorShape":{"dim":[{"size":"960"}]}}},"dtype":{"type":"DT_FLOAT"}}},
          {"name":"model/tf.math.add_95/Add/y","op":"Const","attr":{"value":{"tensor":{"dtype":"DT_FLOAT","tensorShape":{"dim":[{"size":"1"},{"size":"1"},{"size":"1"},{"size":"1"}]}}},"dtype":{"type":"DT_FLOAT"}}},
          {"name":"model/conv2d_50/Conv2D/ReadVariableOp","op":"Const","attr":{"dtype":{"type":"DT_FLOAT"},"value":{"tensor":{"dtype":"DT_FLOAT","tensorShape":{"dim":[{"size":"1"},{"size":"1"},{"size":"960"},{"size":"320"}]}}}}},
          {"name":"model/tf.math.add_96/Add/y","op":"Const","attr":{"dtype":{"type":"DT_FLOAT"},"value":{"tensor":{"dtype":"DT_FLOAT","tensorShape":{"dim":[{"size":"320"}]}}}}},
          {"name":"model/tf.math.add_97/Add/y","op":"Const","attr":{"value":{"tensor":{"dtype":"DT_FLOAT","tensorShape":{"dim":[{"size":"1"},{"size":"1"},{"size":"1"},{"size":"1"}]}}},"dtype":{"type":"DT_FLOAT"}}},
          {"name":"model/conv2d_51/Conv2D/ReadVariableOp","op":"Const","attr":{"value":{"tensor":{"dtype":"DT_FLOAT","tensorShape":{"dim":[{"size":"1"},{"size":"1"},{"size":"320"},{"size":"24"}]}}},"dtype":{"type":"DT_FLOAT"}}},
          {"name":"model/tf.math.add_98/Add/y","op":"Const","attr":{"value":{"tensor":{"dtype":"DT_FLOAT","tensorShape":{"dim":[{"size":"24"}]}}},"dtype":{"type":"DT_FLOAT"}}},
          {"name":"model/tf.math.add_99/Add/y","op":"Const","attr":{"dtype":{"type":"DT_FLOAT"},"value":{"tensor":{"dtype":"DT_FLOAT","tensorShape":{"dim":[{"size":"1"},{"size":"1"},{"size":"1"},{"size":"1"}]}}}}},
          {"name":"model/lambda/ResizeNearestNeighbor/size","op":"Const","attr":{"dtype":{"type":"DT_INT32"},"value":{"tensor":{"dtype":"DT_INT32","tensorShape":{"dim":[{"size":"2"}]}}}}},
          {"name":"model/zero_padding2d_16/Pad/paddings","op":"Const","attr":{"dtype":{"type":"DT_INT32"},"value":{"tensor":{"dtype":"DT_INT32","tensorShape":{"dim":[{"size":"4"},{"size":"2"}]}}}}},
          {"name":"model/conv2d_52/Conv2D/ReadVariableOp","op":"Const","attr":{"dtype":{"type":"DT_FLOAT"},"value":{"tensor":{"dtype":"DT_FLOAT","tensorShape":{"dim":[{"size":"3"},{"size":"3"},{"size":"24"},{"size":"24"}]}}}}},
          {"name":"model/tf.math.add_100/Add/y","op":"Const","attr":{"value":{"tensor":{"dtype":"DT_FLOAT","tensorShape":{"dim":[{"size":"24"}]}}},"dtype":{"type":"DT_FLOAT"}}},
          {"name":"model/tf.math.add_101/Add/y","op":"Const","attr":{"dtype":{"type":"DT_FLOAT"},"value":{"tensor":{"dtype":"DT_FLOAT","tensorShape":{"dim":[{"size":"1"},{"size":"1"},{"size":"1"},{"size":"1"}]}}}}},
          {"name":"model/tf.math.multiply_42/Mul/y","op":"Const","attr":{"value":{"tensor":{"dtype":"DT_FLOAT","tensorShape":{"dim":[{"size":"1"},{"size":"1"},{"size":"1"},{"size":"1"}]}}},"dtype":{"type":"DT_FLOAT"}}},
          {"name":"model/tf.math.multiply_25/Mul/y","op":"Const","attr":{"value":{"tensor":{"dtype":"DT_FLOAT","tensorShape":{"dim":[{"size":"1"},{"size":"1"},{"size":"1"},{"size":"1"}]}}},"dtype":{"type":"DT_FLOAT"}}},
          {"name":"model/tf.math.reduce_mean_5/Mean/reduction_indices","op":"Const","attr":{"dtype":{"type":"DT_INT32"},"value":{"tensor":{"dtype":"DT_INT32","tensorShape":{"dim":[{"size":"2"}]}}}}},
          {"name":"model/conv2d_38/Conv2D/ReadVariableOp","op":"Const","attr":{"value":{"tensor":{"dtype":"DT_FLOAT","tensorShape":{"dim":[{"size":"1"},{"size":"1"},{"size":"160"},{"size":"40"}]}}},"dtype":{"type":"DT_FLOAT"}}},
          {"name":"model/tf.math.add_75/Add/y","op":"Const","attr":{"dtype":{"type":"DT_FLOAT"},"value":{"tensor":{"dtype":"DT_FLOAT","tensorShape":{"dim":[{"size":"40"}]}}}}},
          {"name":"model/conv2d_39/Conv2D/ReadVariableOp","op":"Const","attr":{"dtype":{"type":"DT_FLOAT"},"value":{"tensor":{"dtype":"DT_FLOAT","tensorShape":{"dim":[{"size":"1"},{"size":"1"},{"size":"40"},{"size":"160"}]}}}}},
          {"name":"model/tf.math.add_76/Add/y","op":"Const","attr":{"dtype":{"type":"DT_FLOAT"},"value":{"tensor":{"dtype":"DT_FLOAT","tensorShape":{"dim":[{"size":"160"}]}}}}},
          {"name":"model/conv2d_36/Conv2D/ReadVariableOp","op":"Const","attr":{"dtype":{"type":"DT_FLOAT"},"value":{"tensor":{"dtype":"DT_FLOAT","tensorShape":{"dim":[{"size":"1"},{"size":"1"},{"size":"112"},{"size":"672"}]}}}}},
          {"name":"model/tf.math.add_70/Add/y","op":"Const","attr":{"value":{"tensor":{"dtype":"DT_FLOAT","tensorShape":{"dim":[{"size":"672"}]}}},"dtype":{"type":"DT_FLOAT"}}},
          {"name":"model/tf.math.add_71/Add/y","op":"Const","attr":{"value":{"tensor":{"dtype":"DT_FLOAT","tensorShape":{"dim":[{"size":"1"},{"size":"1"},{"size":"1"},{"size":"1"}]}}},"dtype":{"type":"DT_FLOAT"}}},
          {"name":"model/zero_padding2d_13/Pad/paddings","op":"Const","attr":{"dtype":{"type":"DT_INT32"},"value":{"tensor":{"dtype":"DT_INT32","tensorShape":{"dim":[{"size":"4"},{"size":"2"}]}}}}},
          {"name":"model/depthwise_conv2d_12/depthwise/ReadVariableOp","op":"Const","attr":{"dtype":{"type":"DT_FLOAT"},"value":{"tensor":{"dtype":"DT_FLOAT","tensorShape":{"dim":[{"size":"5"},{"size":"5"},{"size":"672"},{"size":"1"}]}}}}},
          {"name":"model/tf.math.add_72/Add/y","op":"Const","attr":{"dtype":{"type":"DT_FLOAT"},"value":{"tensor":{"dtype":"DT_FLOAT","tensorShape":{"dim":[{"size":"672"}]}}}}},
          {"name":"model/tf.math.add_73/Add/y","op":"Const","attr":{"dtype":{"type":"DT_FLOAT"},"value":{"tensor":{"dtype":"DT_FLOAT","tensorShape":{"dim":[{"size":"1"},{"size":"1"},{"size":"1"},{"size":"1"}]}}}}},
          {"name":"model/conv2d_37/Conv2D/ReadVariableOp","op":"Const","attr":{"dtype":{"type":"DT_FLOAT"},"value":{"tensor":{"dtype":"DT_FLOAT","tensorShape":{"dim":[{"size":"1"},{"size":"1"},{"size":"672"},{"size":"160"}]}}}}},
          {"name":"model/tf.math.add_74/Add/y","op":"Const","attr":{"dtype":{"type":"DT_FLOAT"},"value":{"tensor":{"dtype":"DT_FLOAT","tensorShape":{"dim":[{"size":"160"}]}}}}},
          {"name":"model/tf.math.multiply_21/Mul/y","op":"Const","attr":{"value":{"tensor":{"dtype":"DT_FLOAT","tensorShape":{"dim":[{"size":"1"},{"size":"1"},{"size":"1"},{"size":"1"}]}}},"dtype":{"type":"DT_FLOAT"}}},
          {"name":"model/tf.math.reduce_mean_4/Mean/reduction_indices","op":"Const","attr":{"dtype":{"type":"DT_INT32"},"value":{"tensor":{"dtype":"DT_INT32","tensorShape":{"dim":[{"size":"2"}]}}}}},
          {"name":"model/conv2d_34/Conv2D/ReadVariableOp","op":"Const","attr":{"value":{"tensor":{"dtype":"DT_FLOAT","tensorShape":{"dim":[{"size":"1"},{"size":"1"},{"size":"112"},{"size":"28"}]}}},"dtype":{"type":"DT_FLOAT"}}},
          {"name":"model/tf.math.add_67/Add/y","op":"Const","attr":{"dtype":{"type":"DT_FLOAT"},"value":{"tensor":{"dtype":"DT_FLOAT","tensorShape":{"dim":[{"size":"28"}]}}}}},
          {"name":"model/conv2d_35/Conv2D/ReadVariableOp","op":"Const","attr":{"dtype":{"type":"DT_FLOAT"},"value":{"tensor":{"dtype":"DT_FLOAT","tensorShape":{"dim":[{"size":"1"},{"size":"1"},{"size":"28"},{"size":"112"}]}}}}},
          {"name":"model/tf.math.add_68/Add/y","op":"Const","attr":{"value":{"tensor":{"dtype":"DT_FLOAT","tensorShape":{"dim":[{"size":"112"}]}}},"dtype":{"type":"DT_FLOAT"}}},
          {"name":"model/conv2d_32/Conv2D/ReadVariableOp","op":"Const","attr":{"value":{"tensor":{"dtype":"DT_FLOAT","tensorShape":{"dim":[{"size":"1"},{"size":"1"},{"size":"112"},{"size":"672"}]}}},"dtype":{"type":"DT_FLOAT"}}},
          {"name":"model/tf.math.add_62/Add/y","op":"Const","attr":{"value":{"tensor":{"dtype":"DT_FLOAT","tensorShape":{"dim":[{"size":"672"}]}}},"dtype":{"type":"DT_FLOAT"}}},
          {"name":"model/tf.math.add_63/Add/y","op":"Const","attr":{"value":{"tensor":{"dtype":"DT_FLOAT","tensorShape":{"dim":[{"size":"1"},{"size":"1"},{"size":"1"},{"size":"1"}]}}},"dtype":{"type":"DT_FLOAT"}}},
          {"name":"model/zero_padding2d_12/Pad/paddings","op":"Const","attr":{"value":{"tensor":{"dtype":"DT_INT32","tensorShape":{"dim":[{"size":"4"},{"size":"2"}]}}},"dtype":{"type":"DT_INT32"}}},
          {"name":"model/depthwise_conv2d_11/depthwise/ReadVariableOp","op":"Const","attr":{"value":{"tensor":{"dtype":"DT_FLOAT","tensorShape":{"dim":[{"size":"3"},{"size":"3"},{"size":"672"},{"size":"1"}]}}},"dtype":{"type":"DT_FLOAT"}}},
          {"name":"model/tf.math.add_64/Add/y","op":"Const","attr":{"dtype":{"type":"DT_FLOAT"},"value":{"tensor":{"dtype":"DT_FLOAT","tensorShape":{"dim":[{"size":"672"}]}}}}},
          {"name":"model/tf.math.add_65/Add/y","op":"Const","attr":{"value":{"tensor":{"dtype":"DT_FLOAT","tensorShape":{"dim":[{"size":"1"},{"size":"1"},{"size":"1"},{"size":"1"}]}}},"dtype":{"type":"DT_FLOAT"}}},
          {"name":"model/conv2d_33/Conv2D/ReadVariableOp","op":"Const","attr":{"value":{"tensor":{"dtype":"DT_FLOAT","tensorShape":{"dim":[{"size":"1"},{"size":"1"},{"size":"672"},{"size":"112"}]}}},"dtype":{"type":"DT_FLOAT"}}},
          {"name":"model/tf.math.add_66/Add/y","op":"Const","attr":{"dtype":{"type":"DT_FLOAT"},"value":{"tensor":{"dtype":"DT_FLOAT","tensorShape":{"dim":[{"size":"112"}]}}}}},
          {"name":"model/tf.math.multiply_17/Mul/y","op":"Const","attr":{"dtype":{"type":"DT_FLOAT"},"value":{"tensor":{"dtype":"DT_FLOAT","tensorShape":{"dim":[{"size":"1"},{"size":"1"},{"size":"1"},{"size":"1"}]}}}}},
          {"name":"model/tf.math.reduce_mean_3/Mean/reduction_indices","op":"Const","attr":{"dtype":{"type":"DT_INT32"},"value":{"tensor":{"dtype":"DT_INT32","tensorShape":{"dim":[{"size":"2"}]}}}}},
          {"name":"model/conv2d_29/Conv2D/ReadVariableOp","op":"Const","attr":{"dtype":{"type":"DT_FLOAT"},"value":{"tensor":{"dtype":"DT_FLOAT","tensorShape":{"dim":[{"size":"1"},{"size":"1"},{"size":"112"},{"size":"28"}]}}}}},
          {"name":"model/tf.math.add_58/Add/y","op":"Const","attr":{"value":{"tensor":{"dtype":"DT_FLOAT","tensorShape":{"dim":[{"size":"28"}]}}},"dtype":{"type":"DT_FLOAT"}}},
          {"name":"model/conv2d_30/Conv2D/ReadVariableOp","op":"Const","attr":{"dtype":{"type":"DT_FLOAT"},"value":{"tensor":{"dtype":"DT_FLOAT","tensorShape":{"dim":[{"size":"1"},{"size":"1"},{"size":"28"},{"size":"112"}]}}}}},
          {"name":"model/tf.math.add_59/Add/y","op":"Const","attr":{"value":{"tensor":{"dtype":"DT_FLOAT","tensorShape":{"dim":[{"size":"112"}]}}},"dtype":{"type":"DT_FLOAT"}}},
          {"name":"model/conv2d_27/Conv2D/ReadVariableOp","op":"Const","attr":{"value":{"tensor":{"dtype":"DT_FLOAT","tensorShape":{"dim":[{"size":"1"},{"size":"1"},{"size":"80"},{"size":"480"}]}}},"dtype":{"type":"DT_FLOAT"}}},
          {"name":"model/tf.math.add_53/Add/y","op":"Const","attr":{"dtype":{"type":"DT_FLOAT"},"value":{"tensor":{"dtype":"DT_FLOAT","tensorShape":{"dim":[{"size":"480"}]}}}}},
          {"name":"model/tf.math.add_54/Add/y","op":"Const","attr":{"dtype":{"type":"DT_FLOAT"},"value":{"tensor":{"dtype":"DT_FLOAT","tensorShape":{"dim":[{"size":"1"},{"size":"1"},{"size":"1"},{"size":"1"}]}}}}},
          {"name":"model/zero_padding2d_11/Pad/paddings","op":"Const","attr":{"dtype":{"type":"DT_INT32"},"value":{"tensor":{"dtype":"DT_INT32","tensorShape":{"dim":[{"size":"4"},{"size":"2"}]}}}}},
          {"name":"model/depthwise_conv2d_10/depthwise/ReadVariableOp","op":"Const","attr":{"dtype":{"type":"DT_FLOAT"},"value":{"tensor":{"dtype":"DT_FLOAT","tensorShape":{"dim":[{"size":"3"},{"size":"3"},{"size":"480"},{"size":"1"}]}}}}},
          {"name":"model/tf.math.add_55/Add/y","op":"Const","attr":{"value":{"tensor":{"dtype":"DT_FLOAT","tensorShape":{"dim":[{"size":"480"}]}}},"dtype":{"type":"DT_FLOAT"}}},
          {"name":"model/tf.math.add_56/Add/y","op":"Const","attr":{"value":{"tensor":{"dtype":"DT_FLOAT","tensorShape":{"dim":[{"size":"1"},{"size":"1"},{"size":"1"},{"size":"1"}]}}},"dtype":{"type":"DT_FLOAT"}}},
          {"name":"model/conv2d_28/Conv2D/ReadVariableOp","op":"Const","attr":{"value":{"tensor":{"dtype":"DT_FLOAT","tensorShape":{"dim":[{"size":"1"},{"size":"1"},{"size":"480"},{"size":"112"}]}}},"dtype":{"type":"DT_FLOAT"}}},
          {"name":"model/tf.math.add_57/Add/y","op":"Const","attr":{"dtype":{"type":"DT_FLOAT"},"value":{"tensor":{"dtype":"DT_FLOAT","tensorShape":{"dim":[{"size":"112"}]}}}}},
          {"name":"model/conv2d_25/Conv2D/ReadVariableOp","op":"Const","attr":{"dtype":{"type":"DT_FLOAT"},"value":{"tensor":{"dtype":"DT_FLOAT","tensorShape":{"dim":[{"size":"1"},{"size":"1"},{"size":"80"},{"size":"184"}]}}}}},
          {"name":"model/tf.math.add_47/Add/y","op":"Const","attr":{"dtype":{"type":"DT_FLOAT"},"value":{"tensor":{"dtype":"DT_FLOAT","tensorShape":{"dim":[{"size":"184"}]}}}}},
          {"name":"model/tf.math.add_48/Add/y","op":"Const","attr":{"value":{"tensor":{"dtype":"DT_FLOAT","tensorShape":{"dim":[{"size":"1"},{"size":"1"},{"size":"1"},{"size":"1"}]}}},"dtype":{"type":"DT_FLOAT"}}},
          {"name":"model/zero_padding2d_10/Pad/paddings","op":"Const","attr":{"dtype":{"type":"DT_INT32"},"value":{"tensor":{"dtype":"DT_INT32","tensorShape":{"dim":[{"size":"4"},{"size":"2"}]}}}}},
          {"name":"model/depthwise_conv2d_9/depthwise/ReadVariableOp","op":"Const","attr":{"dtype":{"type":"DT_FLOAT"},"value":{"tensor":{"dtype":"DT_FLOAT","tensorShape":{"dim":[{"size":"3"},{"size":"3"},{"size":"184"},{"size":"1"}]}}}}},
          {"name":"model/tf.math.add_49/Add/y","op":"Const","attr":{"dtype":{"type":"DT_FLOAT"},"value":{"tensor":{"dtype":"DT_FLOAT","tensorShape":{"dim":[{"size":"184"}]}}}}},
          {"name":"model/tf.math.add_50/Add/y","op":"Const","attr":{"value":{"tensor":{"dtype":"DT_FLOAT","tensorShape":{"dim":[{"size":"1"},{"size":"1"},{"size":"1"},{"size":"1"}]}}},"dtype":{"type":"DT_FLOAT"}}},
          {"name":"model/conv2d_26/Conv2D/ReadVariableOp","op":"Const","attr":{"dtype":{"type":"DT_FLOAT"},"value":{"tensor":{"dtype":"DT_FLOAT","tensorShape":{"dim":[{"size":"1"},{"size":"1"},{"size":"184"},{"size":"80"}]}}}}},
          {"name":"model/tf.math.add_51/Add/y","op":"Const","attr":{"dtype":{"type":"DT_FLOAT"},"value":{"tensor":{"dtype":"DT_FLOAT","tensorShape":{"dim":[{"size":"80"}]}}}}},
          {"name":"model/conv2d_23/Conv2D/ReadVariableOp","op":"Const","attr":{"value":{"tensor":{"dtype":"DT_FLOAT","tensorShape":{"dim":[{"size":"1"},{"size":"1"},{"size":"80"},{"size":"184"}]}}},"dtype":{"type":"DT_FLOAT"}}},
          {"name":"model/tf.math.add_41/Add/y","op":"Const","attr":{"value":{"tensor":{"dtype":"DT_FLOAT","tensorShape":{"dim":[{"size":"184"}]}}},"dtype":{"type":"DT_FLOAT"}}},
          {"name":"model/tf.math.add_42/Add/y","op":"Const","attr":{"value":{"tensor":{"dtype":"DT_FLOAT","tensorShape":{"dim":[{"size":"1"},{"size":"1"},{"size":"1"},{"size":"1"}]}}},"dtype":{"type":"DT_FLOAT"}}},
          {"name":"model/zero_padding2d_9/Pad/paddings","op":"Const","attr":{"dtype":{"type":"DT_INT32"},"value":{"tensor":{"dtype":"DT_INT32","tensorShape":{"dim":[{"size":"4"},{"size":"2"}]}}}}},
          {"name":"model/depthwise_conv2d_8/depthwise/ReadVariableOp","op":"Const","attr":{"value":{"tensor":{"dtype":"DT_FLOAT","tensorShape":{"dim":[{"size":"3"},{"size":"3"},{"size":"184"},{"size":"1"}]}}},"dtype":{"type":"DT_FLOAT"}}},
          {"name":"model/tf.math.add_43/Add/y","op":"Const","attr":{"dtype":{"type":"DT_FLOAT"},"value":{"tensor":{"dtype":"DT_FLOAT","tensorShape":{"dim":[{"size":"184"}]}}}}},
          {"name":"model/tf.math.add_44/Add/y","op":"Const","attr":{"dtype":{"type":"DT_FLOAT"},"value":{"tensor":{"dtype":"DT_FLOAT","tensorShape":{"dim":[{"size":"1"},{"size":"1"},{"size":"1"},{"size":"1"}]}}}}},
          {"name":"model/conv2d_24/Conv2D/ReadVariableOp","op":"Const","attr":{"value":{"tensor":{"dtype":"DT_FLOAT","tensorShape":{"dim":[{"size":"1"},{"size":"1"},{"size":"184"},{"size":"80"}]}}},"dtype":{"type":"DT_FLOAT"}}},
          {"name":"model/tf.math.add_45/Add/y","op":"Const","attr":{"dtype":{"type":"DT_FLOAT"},"value":{"tensor":{"dtype":"DT_FLOAT","tensorShape":{"dim":[{"size":"80"}]}}}}},
          {"name":"model/conv2d_21/Conv2D/ReadVariableOp","op":"Const","attr":{"dtype":{"type":"DT_FLOAT"},"value":{"tensor":{"dtype":"DT_FLOAT","tensorShape":{"dim":[{"size":"1"},{"size":"1"},{"size":"80"},{"size":"200"}]}}}}},
          {"name":"model/tf.math.add_35/Add/y","op":"Const","attr":{"dtype":{"type":"DT_FLOAT"},"value":{"tensor":{"dtype":"DT_FLOAT","tensorShape":{"dim":[{"size":"200"}]}}}}},
          {"name":"model/tf.math.add_36/Add/y","op":"Const","attr":{"dtype":{"type":"DT_FLOAT"},"value":{"tensor":{"dtype":"DT_FLOAT","tensorShape":{"dim":[{"size":"1"},{"size":"1"},{"size":"1"},{"size":"1"}]}}}}},
          {"name":"model/zero_padding2d_8/Pad/paddings","op":"Const","attr":{"dtype":{"type":"DT_INT32"},"value":{"tensor":{"dtype":"DT_INT32","tensorShape":{"dim":[{"size":"4"},{"size":"2"}]}}}}},
          {"name":"model/depthwise_conv2d_7/depthwise/ReadVariableOp","op":"Const","attr":{"value":{"tensor":{"dtype":"DT_FLOAT","tensorShape":{"dim":[{"size":"3"},{"size":"3"},{"size":"200"},{"size":"1"}]}}},"dtype":{"type":"DT_FLOAT"}}},
          {"name":"model/tf.math.add_37/Add/y","op":"Const","attr":{"dtype":{"type":"DT_FLOAT"},"value":{"tensor":{"dtype":"DT_FLOAT","tensorShape":{"dim":[{"size":"200"}]}}}}},
          {"name":"model/tf.math.add_38/Add/y","op":"Const","attr":{"dtype":{"type":"DT_FLOAT"},"value":{"tensor":{"dtype":"DT_FLOAT","tensorShape":{"dim":[{"size":"1"},{"size":"1"},{"size":"1"},{"size":"1"}]}}}}},
          {"name":"model/conv2d_22/Conv2D/ReadVariableOp","op":"Const","attr":{"dtype":{"type":"DT_FLOAT"},"value":{"tensor":{"dtype":"DT_FLOAT","tensorShape":{"dim":[{"size":"1"},{"size":"1"},{"size":"200"},{"size":"80"}]}}}}},
          {"name":"model/tf.math.add_39/Add/y","op":"Const","attr":{"value":{"tensor":{"dtype":"DT_FLOAT","tensorShape":{"dim":[{"size":"80"}]}}},"dtype":{"type":"DT_FLOAT"}}},
          {"name":"model/conv2d_19/Conv2D/ReadVariableOp","op":"Const","attr":{"value":{"tensor":{"dtype":"DT_FLOAT","tensorShape":{"dim":[{"size":"1"},{"size":"1"},{"size":"40"},{"size":"240"}]}}},"dtype":{"type":"DT_FLOAT"}}},
          {"name":"model/tf.math.add_30/Add/y","op":"Const","attr":{"value":{"tensor":{"dtype":"DT_FLOAT","tensorShape":{"dim":[{"size":"240"}]}}},"dtype":{"type":"DT_FLOAT"}}},
          {"name":"model/tf.math.add_31/Add/y","op":"Const","attr":{"dtype":{"type":"DT_FLOAT"},"value":{"tensor":{"dtype":"DT_FLOAT","tensorShape":{"dim":[{"size":"1"},{"size":"1"},{"size":"1"},{"size":"1"}]}}}}},
          {"name":"model/zero_padding2d_7/Pad/paddings","op":"Const","attr":{"dtype":{"type":"DT_INT32"},"value":{"tensor":{"dtype":"DT_INT32","tensorShape":{"dim":[{"size":"4"},{"size":"2"}]}}}}},
          {"name":"model/depthwise_conv2d_6/depthwise/ReadVariableOp","op":"Const","attr":{"dtype":{"type":"DT_FLOAT"},"value":{"tensor":{"dtype":"DT_FLOAT","tensorShape":{"dim":[{"size":"3"},{"size":"3"},{"size":"240"},{"size":"1"}]}}}}},
          {"name":"model/tf.math.add_32/Add/y","op":"Const","attr":{"dtype":{"type":"DT_FLOAT"},"value":{"tensor":{"dtype":"DT_FLOAT","tensorShape":{"dim":[{"size":"240"}]}}}}},
          {"name":"model/tf.math.add_33/Add/y","op":"Const","attr":{"value":{"tensor":{"dtype":"DT_FLOAT","tensorShape":{"dim":[{"size":"1"},{"size":"1"},{"size":"1"},{"size":"1"}]}}},"dtype":{"type":"DT_FLOAT"}}},
          {"name":"model/conv2d_20/Conv2D/ReadVariableOp","op":"Const","attr":{"dtype":{"type":"DT_FLOAT"},"value":{"tensor":{"dtype":"DT_FLOAT","tensorShape":{"dim":[{"size":"1"},{"size":"1"},{"size":"240"},{"size":"80"}]}}}}},
          {"name":"model/tf.math.add_34/Add/y","op":"Const","attr":{"dtype":{"type":"DT_FLOAT"},"value":{"tensor":{"dtype":"DT_FLOAT","tensorShape":{"dim":[{"size":"80"}]}}}}},
          {"name":"model/conv2d_31/Conv2D/ReadVariableOp","op":"Const","attr":{"dtype":{"type":"DT_FLOAT"},"value":{"tensor":{"dtype":"DT_FLOAT","tensorShape":{"dim":[{"size":"1"},{"size":"1"},{"size":"80"},{"size":"112"}]}}}}},
          {"name":"model/tf.math.add_60/Add/y","op":"Const","attr":{"dtype":{"type":"DT_FLOAT"},"value":{"tensor":{"dtype":"DT_FLOAT","tensorShape":{"dim":[{"size":"112"}]}}}}},
          {"name":"model/conv2d_40/Conv2D/ReadVariableOp","op":"Const","attr":{"value":{"tensor":{"dtype":"DT_FLOAT","tensorShape":{"dim":[{"size":"1"},{"size":"1"},{"size":"112"},{"size":"160"}]}}},"dtype":{"type":"DT_FLOAT"}}},
          {"name":"model/tf.math.add_77/Add/y","op":"Const","attr":{"dtype":{"type":"DT_FLOAT"},"value":{"tensor":{"dtype":"DT_FLOAT","tensorShape":{"dim":[{"size":"160"}]}}}}},
          {"name":"model/conv2d_53/Conv2D/ReadVariableOp","op":"Const","attr":{"dtype":{"type":"DT_FLOAT"},"value":{"tensor":{"dtype":"DT_FLOAT","tensorShape":{"dim":[{"size":"1"},{"size":"1"},{"size":"160"},{"size":"24"}]}}}}},
          {"name":"model/tf.math.add_102/Add/y","op":"Const","attr":{"value":{"tensor":{"dtype":"DT_FLOAT","tensorShape":{"dim":[{"size":"24"}]}}},"dtype":{"type":"DT_FLOAT"}}},
          {"name":"model/tf.math.add_103/Add/y","op":"Const","attr":{"dtype":{"type":"DT_FLOAT"},"value":{"tensor":{"dtype":"DT_FLOAT","tensorShape":{"dim":[{"size":"1"},{"size":"1"},{"size":"1"},{"size":"1"}]}}}}},
          {"name":"model/lambda_1/ResizeNearestNeighbor/size","op":"Const","attr":{"value":{"tensor":{"dtype":"DT_INT32","tensorShape":{"dim":[{"size":"2"}]}}},"dtype":{"type":"DT_INT32"}}},
          {"name":"model/zero_padding2d_17/Pad/paddings","op":"Const","attr":{"dtype":{"type":"DT_INT32"},"value":{"tensor":{"dtype":"DT_INT32","tensorShape":{"dim":[{"size":"4"},{"size":"2"}]}}}}},
          {"name":"model/conv2d_54/Conv2D/ReadVariableOp","op":"Const","attr":{"dtype":{"type":"DT_FLOAT"},"value":{"tensor":{"dtype":"DT_FLOAT","tensorShape":{"dim":[{"size":"3"},{"size":"3"},{"size":"24"},{"size":"24"}]}}}}},
          {"name":"model/tf.math.add_105/Add/y","op":"Const","attr":{"value":{"tensor":{"dtype":"DT_FLOAT","tensorShape":{"dim":[{"size":"24"}]}}},"dtype":{"type":"DT_FLOAT"}}},
          {"name":"model/tf.math.add_106/Add/y","op":"Const","attr":{"value":{"tensor":{"dtype":"DT_FLOAT","tensorShape":{"dim":[{"size":"1"},{"size":"1"},{"size":"1"},{"size":"1"}]}}},"dtype":{"type":"DT_FLOAT"}}},
          {"name":"model/tf.math.multiply_46/Mul/y","op":"Const","attr":{"value":{"tensor":{"dtype":"DT_FLOAT","tensorShape":{"dim":[{"size":"1"},{"size":"1"},{"size":"1"},{"size":"1"}]}}},"dtype":{"type":"DT_FLOAT"}}},
          {"name":"model/tf.math.multiply_5/Mul/y","op":"Const","attr":{"dtype":{"type":"DT_FLOAT"},"value":{"tensor":{"dtype":"DT_FLOAT","tensorShape":{"dim":[{"size":"1"},{"size":"1"},{"size":"1"},{"size":"1"}]}}}}},
          {"name":"model/tf.math.reduce_mean_2/Mean/reduction_indices","op":"Const","attr":{"dtype":{"type":"DT_INT32"},"value":{"tensor":{"dtype":"DT_INT32","tensorShape":{"dim":[{"size":"2"}]}}}}},
          {"name":"model/conv2d_17/Conv2D/ReadVariableOp","op":"Const","attr":{"value":{"tensor":{"dtype":"DT_FLOAT","tensorShape":{"dim":[{"size":"1"},{"size":"1"},{"size":"40"},{"size":"10"}]}}},"dtype":{"type":"DT_FLOAT"}}},
          {"name":"model/tf.math.add_27/Add/y","op":"Const","attr":{"value":{"tensor":{"dtype":"DT_FLOAT","tensorShape":{"dim":[{"size":"10"}]}}},"dtype":{"type":"DT_FLOAT"}}},
          {"name":"model/conv2d_18/Conv2D/ReadVariableOp","op":"Const","attr":{"value":{"tensor":{"dtype":"DT_FLOAT","tensorShape":{"dim":[{"size":"1"},{"size":"1"},{"size":"10"},{"size":"40"}]}}},"dtype":{"type":"DT_FLOAT"}}},
          {"name":"model/tf.math.add_28/Add/y","op":"Const","attr":{"value":{"tensor":{"dtype":"DT_FLOAT","tensorShape":{"dim":[{"size":"40"}]}}},"dtype":{"type":"DT_FLOAT"}}},
          {"name":"model/conv2d_15/Conv2D/ReadVariableOp","op":"Const","attr":{"value":{"tensor":{"dtype":"DT_FLOAT","tensorShape":{"dim":[{"size":"1"},{"size":"1"},{"size":"40"},{"size":"120"}]}}},"dtype":{"type":"DT_FLOAT"}}},
          {"name":"model/tf.math.add_24/Add/y","op":"Const","attr":{"dtype":{"type":"DT_FLOAT"},"value":{"tensor":{"dtype":"DT_FLOAT","tensorShape":{"dim":[{"size":"120"}]}}}}},
          {"name":"model/zero_padding2d_6/Pad/paddings","op":"Const","attr":{"dtype":{"type":"DT_INT32"},"value":{"tensor":{"dtype":"DT_INT32","tensorShape":{"dim":[{"size":"4"},{"size":"2"}]}}}}},
          {"name":"model/depthwise_conv2d_5/depthwise/ReadVariableOp","op":"Const","attr":{"value":{"tensor":{"dtype":"DT_FLOAT","tensorShape":{"dim":[{"size":"5"},{"size":"5"},{"size":"120"},{"size":"1"}]}}},"dtype":{"type":"DT_FLOAT"}}},
          {"name":"model/tf.math.add_25/Add/y","op":"Const","attr":{"value":{"tensor":{"dtype":"DT_FLOAT","tensorShape":{"dim":[{"size":"120"}]}}},"dtype":{"type":"DT_FLOAT"}}},
          {"name":"model/conv2d_16/Conv2D/ReadVariableOp","op":"Const","attr":{"value":{"tensor":{"dtype":"DT_FLOAT","tensorShape":{"dim":[{"size":"1"},{"size":"1"},{"size":"120"},{"size":"40"}]}}},"dtype":{"type":"DT_FLOAT"}}},
          {"name":"model/tf.math.add_26/Add/y","op":"Const","attr":{"dtype":{"type":"DT_FLOAT"},"value":{"tensor":{"dtype":"DT_FLOAT","tensorShape":{"dim":[{"size":"40"}]}}}}},
          {"name":"model/tf.math.multiply_3/Mul/y","op":"Const","attr":{"value":{"tensor":{"dtype":"DT_FLOAT","tensorShape":{"dim":[{"size":"1"},{"size":"1"},{"size":"1"},{"size":"1"}]}}},"dtype":{"type":"DT_FLOAT"}}},
          {"name":"model/tf.math.reduce_mean_1/Mean/reduction_indices","op":"Const","attr":{"dtype":{"type":"DT_INT32"},"value":{"tensor":{"dtype":"DT_INT32","tensorShape":{"dim":[{"size":"2"}]}}}}},
          {"name":"model/conv2d_13/Conv2D/ReadVariableOp","op":"Const","attr":{"dtype":{"type":"DT_FLOAT"},"value":{"tensor":{"dtype":"DT_FLOAT","tensorShape":{"dim":[{"size":"1"},{"size":"1"},{"size":"40"},{"size":"10"}]}}}}},
          {"name":"model/tf.math.add_21/Add/y","op":"Const","attr":{"dtype":{"type":"DT_FLOAT"},"value":{"tensor":{"dtype":"DT_FLOAT","tensorShape":{"dim":[{"size":"10"}]}}}}},
          {"name":"model/conv2d_14/Conv2D/ReadVariableOp","op":"Const","attr":{"dtype":{"type":"DT_FLOAT"},"value":{"tensor":{"dtype":"DT_FLOAT","tensorShape":{"dim":[{"size":"1"},{"size":"1"},{"size":"10"},{"size":"40"}]}}}}},
          {"name":"model/tf.math.add_22/Add/y","op":"Const","attr":{"dtype":{"type":"DT_FLOAT"},"value":{"tensor":{"dtype":"DT_FLOAT","tensorShape":{"dim":[{"size":"40"}]}}}}},
          {"name":"model/conv2d_11/Conv2D/ReadVariableOp","op":"Const","attr":{"dtype":{"type":"DT_FLOAT"},"value":{"tensor":{"dtype":"DT_FLOAT","tensorShape":{"dim":[{"size":"1"},{"size":"1"},{"size":"40"},{"size":"120"}]}}}}},
          {"name":"model/tf.math.add_18/Add/y","op":"Const","attr":{"dtype":{"type":"DT_FLOAT"},"value":{"tensor":{"dtype":"DT_FLOAT","tensorShape":{"dim":[{"size":"120"}]}}}}},
          {"name":"model/zero_padding2d_5/Pad/paddings","op":"Const","attr":{"dtype":{"type":"DT_INT32"},"value":{"tensor":{"dtype":"DT_INT32","tensorShape":{"dim":[{"size":"4"},{"size":"2"}]}}}}},
          {"name":"model/depthwise_conv2d_4/depthwise/ReadVariableOp","op":"Const","attr":{"dtype":{"type":"DT_FLOAT"},"value":{"tensor":{"dtype":"DT_FLOAT","tensorShape":{"dim":[{"size":"5"},{"size":"5"},{"size":"120"},{"size":"1"}]}}}}},
          {"name":"model/tf.math.add_19/Add/y","op":"Const","attr":{"dtype":{"type":"DT_FLOAT"},"value":{"tensor":{"dtype":"DT_FLOAT","tensorShape":{"dim":[{"size":"120"}]}}}}},
          {"name":"model/conv2d_12/Conv2D/ReadVariableOp","op":"Const","attr":{"dtype":{"type":"DT_FLOAT"},"value":{"tensor":{"dtype":"DT_FLOAT","tensorShape":{"dim":[{"size":"1"},{"size":"1"},{"size":"120"},{"size":"40"}]}}}}},
          {"name":"model/tf.math.add_20/Add/y","op":"Const","attr":{"dtype":{"type":"DT_FLOAT"},"value":{"tensor":{"dtype":"DT_FLOAT","tensorShape":{"dim":[{"size":"40"}]}}}}},
          {"name":"model/tf.math.multiply_1/Mul/y","op":"Const","attr":{"value":{"tensor":{"dtype":"DT_FLOAT","tensorShape":{"dim":[{"size":"1"},{"size":"1"},{"size":"1"},{"size":"1"}]}}},"dtype":{"type":"DT_FLOAT"}}},
          {"name":"model/tf.math.reduce_mean/Mean/reduction_indices","op":"Const","attr":{"value":{"tensor":{"dtype":"DT_INT32","tensorShape":{"dim":[{"size":"2"}]}}},"dtype":{"type":"DT_INT32"}}},
          {"name":"model/conv2d_9/Conv2D/ReadVariableOp","op":"Const","attr":{"dtype":{"type":"DT_FLOAT"},"value":{"tensor":{"dtype":"DT_FLOAT","tensorShape":{"dim":[{"size":"1"},{"size":"1"},{"size":"40"},{"size":"10"}]}}}}},
          {"name":"model/tf.math.add_16/Add/y","op":"Const","attr":{"dtype":{"type":"DT_FLOAT"},"value":{"tensor":{"dtype":"DT_FLOAT","tensorShape":{"dim":[{"size":"10"}]}}}}},
          {"name":"model/conv2d_10/Conv2D/ReadVariableOp","op":"Const","attr":{"dtype":{"type":"DT_FLOAT"},"value":{"tensor":{"dtype":"DT_FLOAT","tensorShape":{"dim":[{"size":"1"},{"size":"1"},{"size":"10"},{"size":"40"}]}}}}},
          {"name":"model/tf.math.add_17/Add/y","op":"Const","attr":{"value":{"tensor":{"dtype":"DT_FLOAT","tensorShape":{"dim":[{"size":"40"}]}}},"dtype":{"type":"DT_FLOAT"}}},
          {"name":"model/conv2d_7/Conv2D/ReadVariableOp","op":"Const","attr":{"value":{"tensor":{"dtype":"DT_FLOAT","tensorShape":{"dim":[{"size":"1"},{"size":"1"},{"size":"24"},{"size":"72"}]}}},"dtype":{"type":"DT_FLOAT"}}},
          {"name":"model/tf.math.add_13/Add/y","op":"Const","attr":{"value":{"tensor":{"dtype":"DT_FLOAT","tensorShape":{"dim":[{"size":"72"}]}}},"dtype":{"type":"DT_FLOAT"}}},
          {"name":"model/zero_padding2d_4/Pad/paddings","op":"Const","attr":{"dtype":{"type":"DT_INT32"},"value":{"tensor":{"dtype":"DT_INT32","tensorShape":{"dim":[{"size":"4"},{"size":"2"}]}}}}},
          {"name":"model/depthwise_conv2d_3/depthwise/ReadVariableOp","op":"Const","attr":{"value":{"tensor":{"dtype":"DT_FLOAT","tensorShape":{"dim":[{"size":"5"},{"size":"5"},{"size":"72"},{"size":"1"}]}}},"dtype":{"type":"DT_FLOAT"}}},
          {"name":"model/tf.math.add_14/Add/y","op":"Const","attr":{"value":{"tensor":{"dtype":"DT_FLOAT","tensorShape":{"dim":[{"size":"72"}]}}},"dtype":{"type":"DT_FLOAT"}}},
          {"name":"model/conv2d_8/Conv2D/ReadVariableOp","op":"Const","attr":{"value":{"tensor":{"dtype":"DT_FLOAT","tensorShape":{"dim":[{"size":"1"},{"size":"1"},{"size":"72"},{"size":"40"}]}}},"dtype":{"type":"DT_FLOAT"}}},
          {"name":"model/tf.math.add_15/Add/y","op":"Const","attr":{"dtype":{"type":"DT_FLOAT"},"value":{"tensor":{"dtype":"DT_FLOAT","tensorShape":{"dim":[{"size":"40"}]}}}}},
          {"name":"model/conv2d_55/Conv2D/ReadVariableOp","op":"Const","attr":{"value":{"tensor":{"dtype":"DT_FLOAT","tensorShape":{"dim":[{"size":"1"},{"size":"1"},{"size":"40"},{"size":"24"}]}}},"dtype":{"type":"DT_FLOAT"}}},
          {"name":"model/tf.math.add_107/Add/y","op":"Const","attr":{"dtype":{"type":"DT_FLOAT"},"value":{"tensor":{"dtype":"DT_FLOAT","tensorShape":{"dim":[{"size":"24"}]}}}}},
          {"name":"model/tf.math.add_108/Add/y","op":"Const","attr":{"dtype":{"type":"DT_FLOAT"},"value":{"tensor":{"dtype":"DT_FLOAT","tensorShape":{"dim":[{"size":"1"},{"size":"1"},{"size":"1"},{"size":"1"}]}}}}},
          {"name":"model/lambda_2/ResizeNearestNeighbor/size","op":"Const","attr":{"dtype":{"type":"DT_INT32"},"value":{"tensor":{"dtype":"DT_INT32","tensorShape":{"dim":[{"size":"2"}]}}}}},
          {"name":"model/zero_padding2d_18/Pad/paddings","op":"Const","attr":{"dtype":{"type":"DT_INT32"},"value":{"tensor":{"dtype":"DT_INT32","tensorShape":{"dim":[{"size":"4"},{"size":"2"}]}}}}},
          {"name":"model/conv2d_56/Conv2D/ReadVariableOp","op":"Const","attr":{"value":{"tensor":{"dtype":"DT_FLOAT","tensorShape":{"dim":[{"size":"3"},{"size":"3"},{"size":"24"},{"size":"24"}]}}},"dtype":{"type":"DT_FLOAT"}}},
          {"name":"model/tf.math.add_110/Add/y","op":"Const","attr":{"value":{"tensor":{"dtype":"DT_FLOAT","tensorShape":{"dim":[{"size":"24"}]}}},"dtype":{"type":"DT_FLOAT"}}},
          {"name":"model/tf.math.add_111/Add/y","op":"Const","attr":{"value":{"tensor":{"dtype":"DT_FLOAT","tensorShape":{"dim":[{"size":"1"},{"size":"1"},{"size":"1"},{"size":"1"}]}}},"dtype":{"type":"DT_FLOAT"}}},
          {"name":"model/tf.math.multiply_50/Mul/y","op":"Const","attr":{"value":{"tensor":{"dtype":"DT_FLOAT","tensorShape":{"dim":[{"size":"1"},{"size":"1"},{"size":"1"},{"size":"1"}]}}},"dtype":{"type":"DT_FLOAT"}}},
          {"name":"model/conv2d_5/Conv2D/ReadVariableOp","op":"Const","attr":{"dtype":{"type":"DT_FLOAT"},"value":{"tensor":{"dtype":"DT_FLOAT","tensorShape":{"dim":[{"size":"1"},{"size":"1"},{"size":"24"},{"size":"72"}]}}}}},
          {"name":"model/tf.math.add_9/Add/y","op":"Const","attr":{"value":{"tensor":{"dtype":"DT_FLOAT","tensorShape":{"dim":[{"size":"72"}]}}},"dtype":{"type":"DT_FLOAT"}}},
          {"name":"model/zero_padding2d_3/Pad/paddings","op":"Const","attr":{"dtype":{"type":"DT_INT32"},"value":{"tensor":{"dtype":"DT_INT32","tensorShape":{"dim":[{"size":"4"},{"size":"2"}]}}}}},
          {"name":"model/depthwise_conv2d_2/depthwise/ReadVariableOp","op":"Const","attr":{"dtype":{"type":"DT_FLOAT"},"value":{"tensor":{"dtype":"DT_FLOAT","tensorShape":{"dim":[{"size":"3"},{"size":"3"},{"size":"72"},{"size":"1"}]}}}}},
          {"name":"model/tf.math.add_10/Add/y","op":"Const","attr":{"dtype":{"type":"DT_FLOAT"},"value":{"tensor":{"dtype":"DT_FLOAT","tensorShape":{"dim":[{"size":"72"}]}}}}},
          {"name":"model/conv2d_6/Conv2D/ReadVariableOp","op":"Const","attr":{"value":{"tensor":{"dtype":"DT_FLOAT","tensorShape":{"dim":[{"size":"1"},{"size":"1"},{"size":"72"},{"size":"24"}]}}},"dtype":{"type":"DT_FLOAT"}}},
          {"name":"model/tf.math.add_11/Add/y","op":"Const","attr":{"dtype":{"type":"DT_FLOAT"},"value":{"tensor":{"dtype":"DT_FLOAT","tensorShape":{"dim":[{"size":"24"}]}}}}},
          {"name":"model/conv2d_1/Conv2D/ReadVariableOp","op":"Const","attr":{"value":{"tensor":{"dtype":"DT_FLOAT","tensorShape":{"dim":[{"size":"1"},{"size":"1"},{"size":"16"},{"size":"16"}]}}},"dtype":{"type":"DT_FLOAT"}}},
          {"name":"model/tf.math.add_2/Add/y","op":"Const","attr":{"value":{"tensor":{"dtype":"DT_FLOAT","tensorShape":{"dim":[{"size":"16"}]}}},"dtype":{"type":"DT_FLOAT"}}},
          {"name":"model/zero_padding2d_1/Pad/paddings","op":"Const","attr":{"dtype":{"type":"DT_INT32"},"value":{"tensor":{"dtype":"DT_INT32","tensorShape":{"dim":[{"size":"4"},{"size":"2"}]}}}}},
          {"name":"model/depthwise_conv2d/depthwise/ReadVariableOp","op":"Const","attr":{"value":{"tensor":{"dtype":"DT_FLOAT","tensorShape":{"dim":[{"size":"3"},{"size":"3"},{"size":"16"},{"size":"1"}]}}},"dtype":{"type":"DT_FLOAT"}}},
          {"name":"model/tf.math.add_3/Add/y","op":"Const","attr":{"value":{"tensor":{"dtype":"DT_FLOAT","tensorShape":{"dim":[{"size":"16"}]}}},"dtype":{"type":"DT_FLOAT"}}},
          {"name":"model/conv2d_2/Conv2D/ReadVariableOp","op":"Const","attr":{"value":{"tensor":{"dtype":"DT_FLOAT","tensorShape":{"dim":[{"size":"1"},{"size":"1"},{"size":"16"},{"size":"16"}]}}},"dtype":{"type":"DT_FLOAT"}}},
          {"name":"model/tf.math.add_4/Add/y","op":"Const","attr":{"dtype":{"type":"DT_FLOAT"},"value":{"tensor":{"dtype":"DT_FLOAT","tensorShape":{"dim":[{"size":"16"}]}}}}},
          {"name":"model/tf.math.multiply/Mul/y","op":"Const","attr":{"value":{"tensor":{"dtype":"DT_FLOAT","tensorShape":{"dim":[{"size":"1"},{"size":"1"},{"size":"1"},{"size":"3"}]}}},"dtype":{"type":"DT_FLOAT"}}},
          {"name":"model/tf.math.add/Add/y","op":"Const","attr":{"dtype":{"type":"DT_FLOAT"},"value":{"tensor":{"dtype":"DT_FLOAT","tensorShape":{"dim":[{"size":"3"}]}}}}},
          {"name":"model/zero_padding2d/Pad/paddings","op":"Const","attr":{"value":{"tensor":{"dtype":"DT_INT32","tensorShape":{"dim":[{"size":"4"},{"size":"2"}]}}},"dtype":{"type":"DT_INT32"}}},
          {"name":"model/conv2d/Conv2D/ReadVariableOp","op":"Const","attr":{"value":{"tensor":{"dtype":"DT_FLOAT","tensorShape":{"dim":[{"size":"3"},{"size":"3"},{"size":"3"},{"size":"16"}]}}},"dtype":{"type":"DT_FLOAT"}}},
          {"name":"model/tf.math.add_1/Add/y","op":"Const","attr":{"value":{"tensor":{"dtype":"DT_FLOAT","tensorShape":{"dim":[{"size":"16"}]}}},"dtype":{"type":"DT_FLOAT"}}},
          {"name":"model/conv2d_3/Conv2D/ReadVariableOp","op":"Const","attr":{"dtype":{"type":"DT_FLOAT"},"value":{"tensor":{"dtype":"DT_FLOAT","tensorShape":{"dim":[{"size":"1"},{"size":"1"},{"size":"16"},{"size":"64"}]}}}}},
          {"name":"model/tf.math.add_6/Add/y","op":"Const","attr":{"value":{"tensor":{"dtype":"DT_FLOAT","tensorShape":{"dim":[{"size":"64"}]}}},"dtype":{"type":"DT_FLOAT"}}},
          {"name":"model/zero_padding2d_2/Pad/paddings","op":"Const","attr":{"value":{"tensor":{"dtype":"DT_INT32","tensorShape":{"dim":[{"size":"4"},{"size":"2"}]}}},"dtype":{"type":"DT_INT32"}}},
          {"name":"model/depthwise_conv2d_1/depthwise/ReadVariableOp","op":"Const","attr":{"dtype":{"type":"DT_FLOAT"},"value":{"tensor":{"dtype":"DT_FLOAT","tensorShape":{"dim":[{"size":"3"},{"size":"3"},{"size":"64"},{"size":"1"}]}}}}},
          {"name":"model/tf.math.add_7/Add/y","op":"Const","attr":{"value":{"tensor":{"dtype":"DT_FLOAT","tensorShape":{"dim":[{"size":"64"}]}}},"dtype":{"type":"DT_FLOAT"}}},
          {"name":"model/conv2d_4/Conv2D/ReadVariableOp","op":"Const","attr":{"dtype":{"type":"DT_FLOAT"},"value":{"tensor":{"dtype":"DT_FLOAT","tensorShape":{"dim":[{"size":"1"},{"size":"1"},{"size":"64"},{"size":"24"}]}}}}},
          {"name":"model/tf.math.add_8/Add/y","op":"Const","attr":{"value":{"tensor":{"dtype":"DT_FLOAT","tensorShape":{"dim":[{"size":"24"}]}}},"dtype":{"type":"DT_FLOAT"}}},
          {"name":"model/conv2d_57/Conv2D/ReadVariableOp","op":"Const","attr":{"value":{"tensor":{"dtype":"DT_FLOAT","tensorShape":{"dim":[{"size":"1"},{"size":"1"},{"size":"24"},{"size":"24"}]}}},"dtype":{"type":"DT_FLOAT"}}},
          {"name":"model/tf.math.add_112/Add/y","op":"Const","attr":{"dtype":{"type":"DT_FLOAT"},"value":{"tensor":{"dtype":"DT_FLOAT","tensorShape":{"dim":[{"size":"24"}]}}}}},
          {"name":"model/tf.math.add_113/Add/y","op":"Const","attr":{"dtype":{"type":"DT_FLOAT"},"value":{"tensor":{"dtype":"DT_FLOAT","tensorShape":{"dim":[{"size":"1"},{"size":"1"},{"size":"1"},{"size":"1"}]}}}}},
          {"name":"model/zero_padding2d_20/Pad/paddings","op":"Const","attr":{"dtype":{"type":"DT_INT32"},"value":{"tensor":{"dtype":"DT_INT32","tensorShape":{"dim":[{"size":"4"},{"size":"2"}]}}}}},
          {"name":"model/conv2d_59/Conv2D/ReadVariableOp","op":"Const","attr":{"dtype":{"type":"DT_FLOAT"},"value":{"tensor":{"dtype":"DT_FLOAT","tensorShape":{"dim":[{"size":"3"},{"size":"3"},{"size":"24"},{"size":"24"}]}}}}},
          {"name":"model/tf.math.add_117/Add/y","op":"Const","attr":{"value":{"tensor":{"dtype":"DT_FLOAT","tensorShape":{"dim":[{"size":"24"}]}}},"dtype":{"type":"DT_FLOAT"}}},
          {"name":"model/tf.math.add_118/Add/y","op":"Const","attr":{"dtype":{"type":"DT_FLOAT"},"value":{"tensor":{"dtype":"DT_FLOAT","tensorShape":{"dim":[{"size":"1"},{"size":"1"},{"size":"1"},{"size":"1"}]}}}}},
          {"name":"model/zero_padding2d_22/Pad/paddings","op":"Const","attr":{"dtype":{"type":"DT_INT32"},"value":{"tensor":{"dtype":"DT_INT32","tensorShape":{"dim":[{"size":"4"},{"size":"2"}]}}}}},
          {"name":"model/conv2d_61/Conv2D/ReadVariableOp","op":"Const","attr":{"dtype":{"type":"DT_FLOAT"},"value":{"tensor":{"dtype":"DT_FLOAT","tensorShape":{"dim":[{"size":"3"},{"size":"3"},{"size":"12"},{"size":"12"}]}}}}},
          {"name":"model/tf.math.add_121/Add/y","op":"Const","attr":{"dtype":{"type":"DT_FLOAT"},"value":{"tensor":{"dtype":"DT_FLOAT","tensorShape":{"dim":[{"size":"12"}]}}}}},
          {"name":"model/tf.math.add_122/Add/y","op":"Const","attr":{"value":{"tensor":{"dtype":"DT_FLOAT","tensorShape":{"dim":[{"size":"1"},{"size":"1"},{"size":"1"},{"size":"1"}]}}},"dtype":{"type":"DT_FLOAT"}}},
          {"name":"model/zero_padding2d_23/Pad/paddings","op":"Const","attr":{"value":{"tensor":{"dtype":"DT_INT32","tensorShape":{"dim":[{"size":"4"},{"size":"2"}]}}},"dtype":{"type":"DT_INT32"}}},
          {"name":"model/conv2d_62/Conv2D/ReadVariableOp","op":"Const","attr":{"value":{"tensor":{"dtype":"DT_FLOAT","tensorShape":{"dim":[{"size":"3"},{"size":"3"},{"size":"12"},{"size":"12"}]}}},"dtype":{"type":"DT_FLOAT"}}},
          {"name":"model/tf.math.add_123/Add/y","op":"Const","attr":{"dtype":{"type":"DT_FLOAT"},"value":{"tensor":{"dtype":"DT_FLOAT","tensorShape":{"dim":[{"size":"12"}]}}}}},
          {"name":"model/tf.math.add_124/Add/y","op":"Const","attr":{"dtype":{"type":"DT_FLOAT"},"value":{"tensor":{"dtype":"DT_FLOAT","tensorShape":{"dim":[{"size":"1"},{"size":"1"},{"size":"1"},{"size":"1"}]}}}}},
          {"name":"model/tf.concat/concat/axis","op":"Const","attr":{"value":{"tensor":{"dtype":"DT_INT32","tensorShape":{}}},"dtype":{"type":"DT_INT32"}}},
          {"name":"model/conv2d_65/Conv2D/ReadVariableOp","op":"Const","attr":{"dtype":{"type":"DT_FLOAT"},"value":{"tensor":{"dtype":"DT_FLOAT","tensorShape":{"dim":[{"size":"1"},{"size":"1"},{"size":"48"},{"size":"1"}]}}}}},
          {"name":"model/tf.math.add_127/Add/y","op":"Const","attr":{"dtype":{"type":"DT_FLOAT"},"value":{"tensor":{"dtype":"DT_FLOAT","tensorShape":{"dim":[{"size":"1"}]}}}}},
          {"name":"inputs","op":"Placeholder","attr":{"shape":{"shape":{"dim":[{"size":"1"},{"size":"480"},{"size":"640"},{"size":"3"}]}},"dtype":{"type":"DT_FLOAT"}}},
          {"name":"model/tf.math.multiply/Mul","op":"Mul","input":["inputs","model/tf.math.multiply/Mul/y"],"attr":{"T":{"type":"DT_FLOAT"}}},
          {"name":"model/tf.math.add/Add","op":"Add","input":["model/tf.math.multiply/Mul","model/tf.math.add/Add/y"],"attr":{"T":{"type":"DT_FLOAT"}}},
          {"name":"model/zero_padding2d/Pad","op":"Pad","input":["model/tf.math.add/Add","model/zero_padding2d/Pad/paddings"],"attr":{"Tpaddings":{"type":"DT_INT32"},"T":{"type":"DT_FLOAT"}}},
          {"name":"model/conv2d/Conv2D","op":"Conv2D","input":["model/zero_padding2d/Pad","model/conv2d/Conv2D/ReadVariableOp"],"device":"/device:CPU:0","attr":{"dilations":{"list":{"i":["1","1","1","1"]}},"T":{"type":"DT_FLOAT"},"use_cudnn_on_gpu":{"b":true},"explicit_paddings":{"list":{}},"padding":{"s":"VkFMSUQ="},"data_format":{"s":"TkhXQw=="},"strides":{"list":{"i":["1","2","2","1"]}}}},
          {"name":"model/tf.math.add_1/Add","op":"Add","input":["model/conv2d/Conv2D","model/tf.math.add_1/Add/y"],"attr":{"T":{"type":"DT_FLOAT"}}},
          {"name":"model/tf.nn.relu/Relu","op":"Relu","input":["model/tf.math.add_1/Add"],"attr":{"T":{"type":"DT_FLOAT"}}},
          {"name":"model/conv2d_1/Conv2D","op":"Conv2D","input":["model/tf.nn.relu/Relu","model/conv2d_1/Conv2D/ReadVariableOp"],"device":"/device:CPU:0","attr":{"data_format":{"s":"TkhXQw=="},"strides":{"list":{"i":["1","1","1","1"]}},"dilations":{"list":{"i":["1","1","1","1"]}},"use_cudnn_on_gpu":{"b":true},"explicit_paddings":{"list":{}},"padding":{"s":"VkFMSUQ="},"T":{"type":"DT_FLOAT"}}},
          {"name":"model/tf.math.add_2/Add","op":"Add","input":["model/conv2d_1/Conv2D","model/tf.math.add_2/Add/y"],"attr":{"T":{"type":"DT_FLOAT"}}},
          {"name":"model/tf.nn.relu_1/Relu","op":"Relu","input":["model/tf.math.add_2/Add"],"attr":{"T":{"type":"DT_FLOAT"}}},
          {"name":"model/zero_padding2d_1/Pad","op":"Pad","input":["model/tf.nn.relu_1/Relu","model/zero_padding2d_1/Pad/paddings"],"attr":{"T":{"type":"DT_FLOAT"},"Tpaddings":{"type":"DT_INT32"}}},
          {"name":"model/depthwise_conv2d/depthwise","op":"DepthwiseConv2dNative","input":["model/zero_padding2d_1/Pad","model/depthwise_conv2d/depthwise/ReadVariableOp"],"attr":{"T":{"type":"DT_FLOAT"},"strides":{"list":{"i":["1","1","1","1"]}},"dilations":{"list":{"i":["1","1","1","1"]}},"padding":{"s":"VkFMSUQ="},"explicit_paddings":{"list":{}},"data_format":{"s":"TkhXQw=="}}},
          {"name":"model/tf.math.add_3/Add","op":"Add","input":["model/depthwise_conv2d/depthwise","model/tf.math.add_3/Add/y"],"attr":{"T":{"type":"DT_FLOAT"}}},
          {"name":"model/tf.nn.relu_2/Relu","op":"Relu","input":["model/tf.math.add_3/Add"],"attr":{"T":{"type":"DT_FLOAT"}}},
          {"name":"model/conv2d_2/Conv2D","op":"Conv2D","input":["model/tf.nn.relu_2/Relu","model/conv2d_2/Conv2D/ReadVariableOp"],"device":"/device:CPU:0","attr":{"padding":{"s":"VkFMSUQ="},"use_cudnn_on_gpu":{"b":true},"strides":{"list":{"i":["1","1","1","1"]}},"explicit_paddings":{"list":{}},"dilations":{"list":{"i":["1","1","1","1"]}},"T":{"type":"DT_FLOAT"},"data_format":{"s":"TkhXQw=="}}},
          {"name":"model/tf.math.add_4/Add","op":"Add","input":["model/conv2d_2/Conv2D","model/tf.math.add_4/Add/y"],"attr":{"T":{"type":"DT_FLOAT"}}},
          {"name":"model/tf.math.add_5/Add","op":"Add","input":["model/tf.math.add_4/Add","model/tf.nn.relu/Relu"],"attr":{"T":{"type":"DT_FLOAT"}}},
          {"name":"model/conv2d_3/Conv2D","op":"Conv2D","input":["model/tf.math.add_5/Add","model/conv2d_3/Conv2D/ReadVariableOp"],"device":"/device:CPU:0","attr":{"padding":{"s":"VkFMSUQ="},"use_cudnn_on_gpu":{"b":true},"data_format":{"s":"TkhXQw=="},"dilations":{"list":{"i":["1","1","1","1"]}},"T":{"type":"DT_FLOAT"},"strides":{"list":{"i":["1","1","1","1"]}},"explicit_paddings":{"list":{}}}},
          {"name":"model/tf.math.add_6/Add","op":"Add","input":["model/conv2d_3/Conv2D","model/tf.math.add_6/Add/y"],"attr":{"T":{"type":"DT_FLOAT"}}},
          {"name":"model/tf.nn.relu_3/Relu","op":"Relu","input":["model/tf.math.add_6/Add"],"attr":{"T":{"type":"DT_FLOAT"}}},
          {"name":"model/zero_padding2d_2/Pad","op":"Pad","input":["model/tf.nn.relu_3/Relu","model/zero_padding2d_2/Pad/paddings"],"attr":{"Tpaddings":{"type":"DT_INT32"},"T":{"type":"DT_FLOAT"}}},
          {"name":"model/depthwise_conv2d_1/depthwise","op":"DepthwiseConv2dNative","input":["model/zero_padding2d_2/Pad","model/depthwise_conv2d_1/depthwise/ReadVariableOp"],"attr":{"dilations":{"list":{"i":["1","1","1","1"]}},"T":{"type":"DT_FLOAT"},"padding":{"s":"VkFMSUQ="},"data_format":{"s":"TkhXQw=="},"explicit_paddings":{"list":{}},"strides":{"list":{"i":["1","2","2","1"]}}}},
          {"name":"model/tf.math.add_7/Add","op":"Add","input":["model/depthwise_conv2d_1/depthwise","model/tf.math.add_7/Add/y"],"attr":{"T":{"type":"DT_FLOAT"}}},
          {"name":"model/tf.nn.relu_4/Relu","op":"Relu","input":["model/tf.math.add_7/Add"],"attr":{"T":{"type":"DT_FLOAT"}}},
          {"name":"model/conv2d_4/Conv2D","op":"Conv2D","input":["model/tf.nn.relu_4/Relu","model/conv2d_4/Conv2D/ReadVariableOp"],"device":"/device:CPU:0","attr":{"padding":{"s":"VkFMSUQ="},"data_format":{"s":"TkhXQw=="},"strides":{"list":{"i":["1","1","1","1"]}},"explicit_paddings":{"list":{}},"T":{"type":"DT_FLOAT"},"dilations":{"list":{"i":["1","1","1","1"]}},"use_cudnn_on_gpu":{"b":true}}},
          {"name":"model/tf.math.add_8/Add","op":"Add","input":["model/conv2d_4/Conv2D","model/tf.math.add_8/Add/y"],"attr":{"T":{"type":"DT_FLOAT"}}},
          {"name":"model/conv2d_5/Conv2D","op":"Conv2D","input":["model/tf.math.add_8/Add","model/conv2d_5/Conv2D/ReadVariableOp"],"device":"/device:CPU:0","attr":{"use_cudnn_on_gpu":{"b":true},"dilations":{"list":{"i":["1","1","1","1"]}},"padding":{"s":"VkFMSUQ="},"T":{"type":"DT_FLOAT"},"data_format":{"s":"TkhXQw=="},"strides":{"list":{"i":["1","1","1","1"]}},"explicit_paddings":{"list":{}}}},
          {"name":"model/tf.math.add_9/Add","op":"Add","input":["model/conv2d_5/Conv2D","model/tf.math.add_9/Add/y"],"attr":{"T":{"type":"DT_FLOAT"}}},
          {"name":"model/tf.nn.relu_5/Relu","op":"Relu","input":["model/tf.math.add_9/Add"],"attr":{"T":{"type":"DT_FLOAT"}}},
          {"name":"model/zero_padding2d_3/Pad","op":"Pad","input":["model/tf.nn.relu_5/Relu","model/zero_padding2d_3/Pad/paddings"],"attr":{"Tpaddings":{"type":"DT_INT32"},"T":{"type":"DT_FLOAT"}}},
          {"name":"model/depthwise_conv2d_2/depthwise","op":"DepthwiseConv2dNative","input":["model/zero_padding2d_3/Pad","model/depthwise_conv2d_2/depthwise/ReadVariableOp"],"attr":{"explicit_paddings":{"list":{}},"data_format":{"s":"TkhXQw=="},"strides":{"list":{"i":["1","1","1","1"]}},"T":{"type":"DT_FLOAT"},"padding":{"s":"VkFMSUQ="},"dilations":{"list":{"i":["1","1","1","1"]}}}},
          {"name":"model/tf.math.add_10/Add","op":"Add","input":["model/depthwise_conv2d_2/depthwise","model/tf.math.add_10/Add/y"],"attr":{"T":{"type":"DT_FLOAT"}}},
          {"name":"model/tf.nn.relu_6/Relu","op":"Relu","input":["model/tf.math.add_10/Add"],"attr":{"T":{"type":"DT_FLOAT"}}},
          {"name":"model/conv2d_6/Conv2D","op":"Conv2D","input":["model/tf.nn.relu_6/Relu","model/conv2d_6/Conv2D/ReadVariableOp"],"device":"/device:CPU:0","attr":{"T":{"type":"DT_FLOAT"},"padding":{"s":"VkFMSUQ="},"dilations":{"list":{"i":["1","1","1","1"]}},"data_format":{"s":"TkhXQw=="},"explicit_paddings":{"list":{}},"use_cudnn_on_gpu":{"b":true},"strides":{"list":{"i":["1","1","1","1"]}}}},
          {"name":"model/tf.math.add_11/Add","op":"Add","input":["model/conv2d_6/Conv2D","model/tf.math.add_11/Add/y"],"attr":{"T":{"type":"DT_FLOAT"}}},
          {"name":"model/tf.math.add_12/Add","op":"Add","input":["model/tf.math.add_11/Add","model/tf.math.add_8/Add"],"attr":{"T":{"type":"DT_FLOAT"}}},
          {"name":"model/conv2d_7/Conv2D","op":"Conv2D","input":["model/tf.math.add_12/Add","model/conv2d_7/Conv2D/ReadVariableOp"],"device":"/device:CPU:0","attr":{"strides":{"list":{"i":["1","1","1","1"]}},"padding":{"s":"VkFMSUQ="},"T":{"type":"DT_FLOAT"},"dilations":{"list":{"i":["1","1","1","1"]}},"explicit_paddings":{"list":{}},"use_cudnn_on_gpu":{"b":true},"data_format":{"s":"TkhXQw=="}}},
          {"name":"model/conv2d_57/Conv2D","op":"Conv2D","input":["model/tf.math.add_12/Add","model/conv2d_57/Conv2D/ReadVariableOp"],"device":"/device:CPU:0","attr":{"dilations":{"list":{"i":["1","1","1","1"]}},"data_format":{"s":"TkhXQw=="},"use_cudnn_on_gpu":{"b":true},"strides":{"list":{"i":["1","1","1","1"]}},"explicit_paddings":{"list":{}},"padding":{"s":"VkFMSUQ="},"T":{"type":"DT_FLOAT"}}},
          {"name":"model/tf.math.add_13/Add","op":"Add","input":["model/conv2d_7/Conv2D","model/tf.math.add_13/Add/y"],"attr":{"T":{"type":"DT_FLOAT"}}},
          {"name":"model/tf.math.add_112/Add","op":"Add","input":["model/conv2d_57/Conv2D","model/tf.math.add_112/Add/y"],"attr":{"T":{"type":"DT_FLOAT"}}},
          {"name":"model/tf.nn.relu_7/Relu","op":"Relu","input":["model/tf.math.add_13/Add"],"attr":{"T":{"type":"DT_FLOAT"}}},
          {"name":"model/tf.math.multiply_49/Mul","op":"Mul","input":["model/tf.math.multiply_50/Mul/y","model/tf.math.add_112/Add"],"attr":{"_grappler_ArithmeticOptimizer_MinimizeBroadcasts":{"b":true},"T":{"type":"DT_FLOAT"}}},
          {"name":"model/tf.math.add_113/Add","op":"Add","input":["model/tf.math.add_112/Add","model/tf.math.add_113/Add/y"],"attr":{"T":{"type":"DT_FLOAT"}}},
          {"name":"model/zero_padding2d_4/Pad","op":"Pad","input":["model/tf.nn.relu_7/Relu","model/zero_padding2d_4/Pad/paddings"],"attr":{"T":{"type":"DT_FLOAT"},"Tpaddings":{"type":"DT_INT32"}}},
          {"name":"model/tf.nn.relu6_34/Relu6","op":"Relu6","input":["model/tf.math.add_113/Add"],"attr":{"T":{"type":"DT_FLOAT"}}},
          {"name":"model/depthwise_conv2d_3/depthwise","op":"DepthwiseConv2dNative","input":["model/zero_padding2d_4/Pad","model/depthwise_conv2d_3/depthwise/ReadVariableOp"],"attr":{"T":{"type":"DT_FLOAT"},"padding":{"s":"VkFMSUQ="},"dilations":{"list":{"i":["1","1","1","1"]}},"explicit_paddings":{"list":{}},"data_format":{"s":"TkhXQw=="},"strides":{"list":{"i":["1","2","2","1"]}}}},
          {"name":"model/tf.math.multiply_50/Mul","op":"Mul","input":["model/tf.math.multiply_49/Mul","model/tf.nn.relu6_34/Relu6"],"attr":{"T":{"type":"DT_FLOAT"},"_grappler_ArithmeticOptimizer_MinimizeBroadcasts":{"b":true}}},
          {"name":"model/tf.math.add_14/Add","op":"Add","input":["model/depthwise_conv2d_3/depthwise","model/tf.math.add_14/Add/y"],"attr":{"T":{"type":"DT_FLOAT"}}},
          {"name":"model/tf.nn.relu_8/Relu","op":"Relu","input":["model/tf.math.add_14/Add"],"attr":{"T":{"type":"DT_FLOAT"}}},
          {"name":"model/conv2d_8/Conv2D","op":"Conv2D","input":["model/tf.nn.relu_8/Relu","model/conv2d_8/Conv2D/ReadVariableOp"],"device":"/device:CPU:0","attr":{"explicit_paddings":{"list":{}},"padding":{"s":"VkFMSUQ="},"data_format":{"s":"TkhXQw=="},"use_cudnn_on_gpu":{"b":true},"dilations":{"list":{"i":["1","1","1","1"]}},"strides":{"list":{"i":["1","1","1","1"]}},"T":{"type":"DT_FLOAT"}}},
          {"name":"model/tf.math.add_15/Add","op":"Add","input":["model/conv2d_8/Conv2D","model/tf.math.add_15/Add/y"],"attr":{"T":{"type":"DT_FLOAT"}}},
          {"name":"model/tf.math.reduce_mean/Mean","op":"Mean","input":["model/tf.math.add_15/Add","model/tf.math.reduce_mean/Mean/reduction_indices"],"attr":{"T":{"type":"DT_FLOAT"},"Tidx":{"type":"DT_INT32"},"keep_dims":{"b":true}}},
          {"name":"model/conv2d_9/Conv2D","op":"Conv2D","input":["model/tf.math.reduce_mean/Mean","model/conv2d_9/Conv2D/ReadVariableOp"],"device":"/device:CPU:0","attr":{"padding":{"s":"VkFMSUQ="},"dilations":{"list":{"i":["1","1","1","1"]}},"explicit_paddings":{"list":{}},"T":{"type":"DT_FLOAT"},"strides":{"list":{"i":["1","1","1","1"]}},"data_format":{"s":"TkhXQw=="},"use_cudnn_on_gpu":{"b":true}}},
          {"name":"model/tf.math.add_16/Add","op":"Add","input":["model/conv2d_9/Conv2D","model/tf.math.add_16/Add/y"],"attr":{"T":{"type":"DT_FLOAT"}}},
          {"name":"model/tf.nn.relu_9/Relu","op":"Relu","input":["model/tf.math.add_16/Add"],"attr":{"T":{"type":"DT_FLOAT"}}},
          {"name":"model/conv2d_10/Conv2D","op":"Conv2D","input":["model/tf.nn.relu_9/Relu","model/conv2d_10/Conv2D/ReadVariableOp"],"device":"/device:CPU:0","attr":{"use_cudnn_on_gpu":{"b":true},"data_format":{"s":"TkhXQw=="},"T":{"type":"DT_FLOAT"},"strides":{"list":{"i":["1","1","1","1"]}},"dilations":{"list":{"i":["1","1","1","1"]}},"padding":{"s":"VkFMSUQ="},"explicit_paddings":{"list":{}}}},
          {"name":"model/tf.math.add_17/Add","op":"Add","input":["model/conv2d_10/Conv2D","model/tf.math.add_17/Add/y"],"attr":{"T":{"type":"DT_FLOAT"}}},
          {"name":"model/tf.nn.relu6/Relu6","op":"Relu6","input":["model/tf.math.add_17/Add"],"attr":{"T":{"type":"DT_FLOAT"}}},
          {"name":"model/tf.math.multiply_1/Mul","op":"Mul","input":["model/tf.math.multiply_1/Mul/y","model/tf.nn.relu6/Relu6"],"attr":{"T":{"type":"DT_FLOAT"},"_grappler_ArithmeticOptimizer_MinimizeBroadcasts":{"b":true}}},
          {"name":"model/tf.math.multiply_2/Mul","op":"Mul","input":["model/tf.math.multiply_1/Mul","model/tf.math.add_15/Add"],"attr":{"T":{"type":"DT_FLOAT"},"_grappler_ArithmeticOptimizer_MinimizeBroadcasts":{"b":true}}},
          {"name":"model/conv2d_11/Conv2D","op":"Conv2D","input":["model/tf.math.multiply_2/Mul","model/conv2d_11/Conv2D/ReadVariableOp"],"device":"/device:CPU:0","attr":{"data_format":{"s":"TkhXQw=="},"explicit_paddings":{"list":{}},"use_cudnn_on_gpu":{"b":true},"dilations":{"list":{"i":["1","1","1","1"]}},"T":{"type":"DT_FLOAT"},"strides":{"list":{"i":["1","1","1","1"]}},"padding":{"s":"VkFMSUQ="}}},
          {"name":"model/tf.math.add_18/Add","op":"Add","input":["model/conv2d_11/Conv2D","model/tf.math.add_18/Add/y"],"attr":{"T":{"type":"DT_FLOAT"}}},
          {"name":"model/tf.nn.relu_10/Relu","op":"Relu","input":["model/tf.math.add_18/Add"],"attr":{"T":{"type":"DT_FLOAT"}}},
          {"name":"model/zero_padding2d_5/Pad","op":"Pad","input":["model/tf.nn.relu_10/Relu","model/zero_padding2d_5/Pad/paddings"],"attr":{"Tpaddings":{"type":"DT_INT32"},"T":{"type":"DT_FLOAT"}}},
          {"name":"model/depthwise_conv2d_4/depthwise","op":"DepthwiseConv2dNative","input":["model/zero_padding2d_5/Pad","model/depthwise_conv2d_4/depthwise/ReadVariableOp"],"attr":{"data_format":{"s":"TkhXQw=="},"padding":{"s":"VkFMSUQ="},"strides":{"list":{"i":["1","1","1","1"]}},"dilations":{"list":{"i":["1","1","1","1"]}},"T":{"type":"DT_FLOAT"},"explicit_paddings":{"list":{}}}},
          {"name":"model/tf.math.add_19/Add","op":"Add","input":["model/depthwise_conv2d_4/depthwise","model/tf.math.add_19/Add/y"],"attr":{"T":{"type":"DT_FLOAT"}}},
          {"name":"model/tf.nn.relu_11/Relu","op":"Relu","input":["model/tf.math.add_19/Add"],"attr":{"T":{"type":"DT_FLOAT"}}},
          {"name":"model/conv2d_12/Conv2D","op":"Conv2D","input":["model/tf.nn.relu_11/Relu","model/conv2d_12/Conv2D/ReadVariableOp"],"device":"/device:CPU:0","attr":{"T":{"type":"DT_FLOAT"},"strides":{"list":{"i":["1","1","1","1"]}},"data_format":{"s":"TkhXQw=="},"dilations":{"list":{"i":["1","1","1","1"]}},"use_cudnn_on_gpu":{"b":true},"padding":{"s":"VkFMSUQ="},"explicit_paddings":{"list":{}}}},
          {"name":"model/tf.math.add_20/Add","op":"Add","input":["model/conv2d_12/Conv2D","model/tf.math.add_20/Add/y"],"attr":{"T":{"type":"DT_FLOAT"}}},
          {"name":"model/tf.math.reduce_mean_1/Mean","op":"Mean","input":["model/tf.math.add_20/Add","model/tf.math.reduce_mean_1/Mean/reduction_indices"],"attr":{"T":{"type":"DT_FLOAT"},"Tidx":{"type":"DT_INT32"},"keep_dims":{"b":true}}},
          {"name":"model/conv2d_13/Conv2D","op":"Conv2D","input":["model/tf.math.reduce_mean_1/Mean","model/conv2d_13/Conv2D/ReadVariableOp"],"device":"/device:CPU:0","attr":{"explicit_paddings":{"list":{}},"padding":{"s":"VkFMSUQ="},"strides":{"list":{"i":["1","1","1","1"]}},"use_cudnn_on_gpu":{"b":true},"dilations":{"list":{"i":["1","1","1","1"]}},"T":{"type":"DT_FLOAT"},"data_format":{"s":"TkhXQw=="}}},
          {"name":"model/tf.math.add_21/Add","op":"Add","input":["model/conv2d_13/Conv2D","model/tf.math.add_21/Add/y"],"attr":{"T":{"type":"DT_FLOAT"}}},
          {"name":"model/tf.nn.relu_12/Relu","op":"Relu","input":["model/tf.math.add_21/Add"],"attr":{"T":{"type":"DT_FLOAT"}}},
          {"name":"model/conv2d_14/Conv2D","op":"Conv2D","input":["model/tf.nn.relu_12/Relu","model/conv2d_14/Conv2D/ReadVariableOp"],"device":"/device:CPU:0","attr":{"strides":{"list":{"i":["1","1","1","1"]}},"data_format":{"s":"TkhXQw=="},"use_cudnn_on_gpu":{"b":true},"padding":{"s":"VkFMSUQ="},"T":{"type":"DT_FLOAT"},"explicit_paddings":{"list":{}},"dilations":{"list":{"i":["1","1","1","1"]}}}},
          {"name":"model/tf.math.add_22/Add","op":"Add","input":["model/conv2d_14/Conv2D","model/tf.math.add_22/Add/y"],"attr":{"T":{"type":"DT_FLOAT"}}},
          {"name":"model/tf.nn.relu6_1/Relu6","op":"Relu6","input":["model/tf.math.add_22/Add"],"attr":{"T":{"type":"DT_FLOAT"}}},
          {"name":"model/tf.math.multiply_3/Mul","op":"Mul","input":["model/tf.math.multiply_3/Mul/y","model/tf.nn.relu6_1/Relu6"],"attr":{"_grappler_ArithmeticOptimizer_MinimizeBroadcasts":{"b":true},"T":{"type":"DT_FLOAT"}}},
          {"name":"model/tf.math.multiply_4/Mul","op":"Mul","input":["model/tf.math.multiply_3/Mul","model/tf.math.add_20/Add"],"attr":{"_grappler_ArithmeticOptimizer_MinimizeBroadcasts":{"b":true},"T":{"type":"DT_FLOAT"}}},
          {"name":"model/tf.math.add_23/Add","op":"Add","input":["model/tf.math.multiply_4/Mul","model/tf.math.multiply_2/Mul"],"attr":{"T":{"type":"DT_FLOAT"}}},
          {"name":"model/conv2d_15/Conv2D","op":"Conv2D","input":["model/tf.math.add_23/Add","model/conv2d_15/Conv2D/ReadVariableOp"],"device":"/device:CPU:0","attr":{"data_format":{"s":"TkhXQw=="},"explicit_paddings":{"list":{}},"use_cudnn_on_gpu":{"b":true},"padding":{"s":"VkFMSUQ="},"T":{"type":"DT_FLOAT"},"strides":{"list":{"i":["1","1","1","1"]}},"dilations":{"list":{"i":["1","1","1","1"]}}}},
          {"name":"model/tf.math.add_24/Add","op":"Add","input":["model/conv2d_15/Conv2D","model/tf.math.add_24/Add/y"],"attr":{"T":{"type":"DT_FLOAT"}}},
          {"name":"model/tf.nn.relu_13/Relu","op":"Relu","input":["model/tf.math.add_24/Add"],"attr":{"T":{"type":"DT_FLOAT"}}},
          {"name":"model/zero_padding2d_6/Pad","op":"Pad","input":["model/tf.nn.relu_13/Relu","model/zero_padding2d_6/Pad/paddings"],"attr":{"T":{"type":"DT_FLOAT"},"Tpaddings":{"type":"DT_INT32"}}},
          {"name":"model/depthwise_conv2d_5/depthwise","op":"DepthwiseConv2dNative","input":["model/zero_padding2d_6/Pad","model/depthwise_conv2d_5/depthwise/ReadVariableOp"],"attr":{"dilations":{"list":{"i":["1","1","1","1"]}},"T":{"type":"DT_FLOAT"},"strides":{"list":{"i":["1","1","1","1"]}},"explicit_paddings":{"list":{}},"padding":{"s":"VkFMSUQ="},"data_format":{"s":"TkhXQw=="}}},
          {"name":"model/tf.math.add_25/Add","op":"Add","input":["model/depthwise_conv2d_5/depthwise","model/tf.math.add_25/Add/y"],"attr":{"T":{"type":"DT_FLOAT"}}},
          {"name":"model/tf.nn.relu_14/Relu","op":"Relu","input":["model/tf.math.add_25/Add"],"attr":{"T":{"type":"DT_FLOAT"}}},
          {"name":"model/conv2d_16/Conv2D","op":"Conv2D","input":["model/tf.nn.relu_14/Relu","model/conv2d_16/Conv2D/ReadVariableOp"],"device":"/device:CPU:0","attr":{"strides":{"list":{"i":["1","1","1","1"]}},"use_cudnn_on_gpu":{"b":true},"data_format":{"s":"TkhXQw=="},"explicit_paddings":{"list":{}},"T":{"type":"DT_FLOAT"},"dilations":{"list":{"i":["1","1","1","1"]}},"padding":{"s":"VkFMSUQ="}}},
          {"name":"model/tf.math.add_26/Add","op":"Add","input":["model/conv2d_16/Conv2D","model/tf.math.add_26/Add/y"],"attr":{"T":{"type":"DT_FLOAT"}}},
          {"name":"model/tf.math.reduce_mean_2/Mean","op":"Mean","input":["model/tf.math.add_26/Add","model/tf.math.reduce_mean_2/Mean/reduction_indices"],"attr":{"T":{"type":"DT_FLOAT"},"Tidx":{"type":"DT_INT32"},"keep_dims":{"b":true}}},
          {"name":"model/conv2d_17/Conv2D","op":"Conv2D","input":["model/tf.math.reduce_mean_2/Mean","model/conv2d_17/Conv2D/ReadVariableOp"],"device":"/device:CPU:0","attr":{"strides":{"list":{"i":["1","1","1","1"]}},"T":{"type":"DT_FLOAT"},"dilations":{"list":{"i":["1","1","1","1"]}},"use_cudnn_on_gpu":{"b":true},"explicit_paddings":{"list":{}},"data_format":{"s":"TkhXQw=="},"padding":{"s":"VkFMSUQ="}}},
          {"name":"model/tf.math.add_27/Add","op":"Add","input":["model/conv2d_17/Conv2D","model/tf.math.add_27/Add/y"],"attr":{"T":{"type":"DT_FLOAT"}}},
          {"name":"model/tf.nn.relu_15/Relu","op":"Relu","input":["model/tf.math.add_27/Add"],"attr":{"T":{"type":"DT_FLOAT"}}},
          {"name":"model/conv2d_18/Conv2D","op":"Conv2D","input":["model/tf.nn.relu_15/Relu","model/conv2d_18/Conv2D/ReadVariableOp"],"device":"/device:CPU:0","attr":{"use_cudnn_on_gpu":{"b":true},"dilations":{"list":{"i":["1","1","1","1"]}},"strides":{"list":{"i":["1","1","1","1"]}},"data_format":{"s":"TkhXQw=="},"padding":{"s":"VkFMSUQ="},"explicit_paddings":{"list":{}},"T":{"type":"DT_FLOAT"}}},
          {"name":"model/tf.math.add_28/Add","op":"Add","input":["model/conv2d_18/Conv2D","model/tf.math.add_28/Add/y"],"attr":{"T":{"type":"DT_FLOAT"}}},
          {"name":"model/tf.nn.relu6_2/Relu6","op":"Relu6","input":["model/tf.math.add_28/Add"],"attr":{"T":{"type":"DT_FLOAT"}}},
          {"name":"model/tf.math.multiply_5/Mul","op":"Mul","input":["model/tf.math.multiply_5/Mul/y","model/tf.nn.relu6_2/Relu6"],"attr":{"_grappler_ArithmeticOptimizer_MinimizeBroadcasts":{"b":true},"T":{"type":"DT_FLOAT"}}},
          {"name":"model/tf.math.multiply_6/Mul","op":"Mul","input":["model/tf.math.multiply_5/Mul","model/tf.math.add_26/Add"],"attr":{"_grappler_ArithmeticOptimizer_MinimizeBroadcasts":{"b":true},"T":{"type":"DT_FLOAT"}}},
          {"name":"model/tf.math.add_29/Add","op":"Add","input":["model/tf.math.multiply_6/Mul","model/tf.math.add_23/Add"],"attr":{"T":{"type":"DT_FLOAT"}}},
          {"name":"model/conv2d_19/Conv2D","op":"Conv2D","input":["model/tf.math.add_29/Add","model/conv2d_19/Conv2D/ReadVariableOp"],"device":"/device:CPU:0","attr":{"dilations":{"list":{"i":["1","1","1","1"]}},"strides":{"list":{"i":["1","1","1","1"]}},"use_cudnn_on_gpu":{"b":true},"data_format":{"s":"TkhXQw=="},"T":{"type":"DT_FLOAT"},"explicit_paddings":{"list":{}},"padding":{"s":"VkFMSUQ="}}},
          {"name":"model/conv2d_55/Conv2D","op":"Conv2D","input":["model/tf.math.add_29/Add","model/conv2d_55/Conv2D/ReadVariableOp"],"device":"/device:CPU:0","attr":{"data_format":{"s":"TkhXQw=="},"padding":{"s":"VkFMSUQ="},"strides":{"list":{"i":["1","1","1","1"]}},"explicit_paddings":{"list":{}},"use_cudnn_on_gpu":{"b":true},"T":{"type":"DT_FLOAT"},"dilations":{"list":{"i":["1","1","1","1"]}}}},
          {"name":"model/tf.math.add_30/Add","op":"Add","input":["model/conv2d_19/Conv2D","model/tf.math.add_30/Add/y"],"attr":{"T":{"type":"DT_FLOAT"}}},
          {"name":"model/tf.math.add_107/Add","op":"Add","input":["model/conv2d_55/Conv2D","model/tf.math.add_107/Add/y"],"attr":{"T":{"type":"DT_FLOAT"}}},
          {"name":"model/tf.math.add_31/Add","op":"Add","input":["model/tf.math.add_30/Add","model/tf.math.add_31/Add/y"],"attr":{"T":{"type":"DT_FLOAT"}}},
          {"name":"model/tf.math.multiply_45/Mul","op":"Mul","input":["model/tf.math.multiply_46/Mul/y","model/tf.math.add_107/Add"],"attr":{"_grappler_ArithmeticOptimizer_MinimizeBroadcasts":{"b":true},"T":{"type":"DT_FLOAT"}}},
          {"name":"model/tf.math.add_108/Add","op":"Add","input":["model/tf.math.add_107/Add","model/tf.math.add_108/Add/y"],"attr":{"T":{"type":"DT_FLOAT"}}},
          {"name":"model/tf.nn.relu6_3/Relu6","op":"Relu6","input":["model/tf.math.add_31/Add"],"attr":{"T":{"type":"DT_FLOAT"}}},
          {"name":"model/tf.nn.relu6_32/Relu6","op":"Relu6","input":["model/tf.math.add_108/Add"],"attr":{"T":{"type":"DT_FLOAT"}}},
          {"name":"model/tf.math.multiply_7/Mul","op":"Mul","input":["model/tf.math.add_30/Add","model/tf.nn.relu6_3/Relu6"],"attr":{"T":{"type":"DT_FLOAT"}}},
          {"name":"model/tf.math.multiply_46/Mul","op":"Mul","input":["model/tf.math.multiply_45/Mul","model/tf.nn.relu6_32/Relu6"],"attr":{"_grappler_ArithmeticOptimizer_MinimizeBroadcasts":{"b":true},"T":{"type":"DT_FLOAT"}}},
          {"name":"model/zero_padding2d_7/Pad","op":"Pad","input":["model/tf.math.multiply_7/Mul","model/zero_padding2d_7/Pad/paddings"],"attr":{"Tpaddings":{"type":"DT_INT32"},"T":{"type":"DT_FLOAT"}}},
          {"name":"model/depthwise_conv2d_6/depthwise","op":"DepthwiseConv2dNative","input":["model/zero_padding2d_7/Pad","model/depthwise_conv2d_6/depthwise/ReadVariableOp"],"attr":{"data_format":{"s":"TkhXQw=="},"strides":{"list":{"i":["1","2","2","1"]}},"explicit_paddings":{"list":{}},"padding":{"s":"VkFMSUQ="},"dilations":{"list":{"i":["1","1","1","1"]}},"T":{"type":"DT_FLOAT"}}},
          {"name":"model/tf.math.add_32/Add","op":"Add","input":["model/depthwise_conv2d_6/depthwise","model/tf.math.add_32/Add/y"],"attr":{"T":{"type":"DT_FLOAT"}}},
          {"name":"model/tf.math.add_33/Add","op":"Add","input":["model/tf.math.add_32/Add","model/tf.math.add_33/Add/y"],"attr":{"T":{"type":"DT_FLOAT"}}},
          {"name":"model/tf.nn.relu6_4/Relu6","op":"Relu6","input":["model/tf.math.add_33/Add"],"attr":{"T":{"type":"DT_FLOAT"}}},
          {"name":"model/tf.math.multiply_8/Mul","op":"Mul","input":["model/tf.math.add_32/Add","model/tf.nn.relu6_4/Relu6"],"attr":{"T":{"type":"DT_FLOAT"}}},
          {"name":"model/conv2d_20/Conv2D","op":"Conv2D","input":["model/tf.math.multiply_8/Mul","model/conv2d_20/Conv2D/ReadVariableOp"],"device":"/device:CPU:0","attr":{"padding":{"s":"VkFMSUQ="},"T":{"type":"DT_FLOAT"},"data_format":{"s":"TkhXQw=="},"dilations":{"list":{"i":["1","1","1","1"]}},"use_cudnn_on_gpu":{"b":true},"strides":{"list":{"i":["1","1","1","1"]}},"explicit_paddings":{"list":{}}}},
          {"name":"model/tf.math.add_34/Add","op":"Add","input":["model/conv2d_20/Conv2D","model/tf.math.add_34/Add/y"],"attr":{"T":{"type":"DT_FLOAT"}}},
          {"name":"model/conv2d_21/Conv2D","op":"Conv2D","input":["model/tf.math.add_34/Add","model/conv2d_21/Conv2D/ReadVariableOp"],"device":"/device:CPU:0","attr":{"dilations":{"list":{"i":["1","1","1","1"]}},"use_cudnn_on_gpu":{"b":true},"explicit_paddings":{"list":{}},"T":{"type":"DT_FLOAT"},"data_format":{"s":"TkhXQw=="},"strides":{"list":{"i":["1","1","1","1"]}},"padding":{"s":"VkFMSUQ="}}},
          {"name":"model/tf.math.add_35/Add","op":"Add","input":["model/conv2d_21/Conv2D","model/tf.math.add_35/Add/y"],"attr":{"T":{"type":"DT_FLOAT"}}},
          {"name":"model/tf.math.add_36/Add","op":"Add","input":["model/tf.math.add_35/Add","model/tf.math.add_36/Add/y"],"attr":{"T":{"type":"DT_FLOAT"}}},
          {"name":"model/tf.nn.relu6_5/Relu6","op":"Relu6","input":["model/tf.math.add_36/Add"],"attr":{"T":{"type":"DT_FLOAT"}}},
          {"name":"model/tf.math.multiply_9/Mul","op":"Mul","input":["model/tf.math.add_35/Add","model/tf.nn.relu6_5/Relu6"],"attr":{"T":{"type":"DT_FLOAT"}}},
          {"name":"model/zero_padding2d_8/Pad","op":"Pad","input":["model/tf.math.multiply_9/Mul","model/zero_padding2d_8/Pad/paddings"],"attr":{"Tpaddings":{"type":"DT_INT32"},"T":{"type":"DT_FLOAT"}}},
          {"name":"model/depthwise_conv2d_7/depthwise","op":"DepthwiseConv2dNative","input":["model/zero_padding2d_8/Pad","model/depthwise_conv2d_7/depthwise/ReadVariableOp"],"attr":{"T":{"type":"DT_FLOAT"},"explicit_paddings":{"list":{}},"dilations":{"list":{"i":["1","1","1","1"]}},"padding":{"s":"VkFMSUQ="},"data_format":{"s":"TkhXQw=="},"strides":{"list":{"i":["1","1","1","1"]}}}},
          {"name":"model/tf.math.add_37/Add","op":"Add","input":["model/depthwise_conv2d_7/depthwise","model/tf.math.add_37/Add/y"],"attr":{"T":{"type":"DT_FLOAT"}}},
          {"name":"model/tf.math.add_38/Add","op":"Add","input":["model/tf.math.add_37/Add","model/tf.math.add_38/Add/y"],"attr":{"T":{"type":"DT_FLOAT"}}},
          {"name":"model/tf.nn.relu6_6/Relu6","op":"Relu6","input":["model/tf.math.add_38/Add"],"attr":{"T":{"type":"DT_FLOAT"}}},
          {"name":"model/tf.math.multiply_10/Mul","op":"Mul","input":["model/tf.math.add_37/Add","model/tf.nn.relu6_6/Relu6"],"attr":{"T":{"type":"DT_FLOAT"}}},
          {"name":"model/conv2d_22/Conv2D","op":"Conv2D","input":["model/tf.math.multiply_10/Mul","model/conv2d_22/Conv2D/ReadVariableOp"],"device":"/device:CPU:0","attr":{"strides":{"list":{"i":["1","1","1","1"]}},"use_cudnn_on_gpu":{"b":true},"explicit_paddings":{"list":{}},"dilations":{"list":{"i":["1","1","1","1"]}},"data_format":{"s":"TkhXQw=="},"padding":{"s":"VkFMSUQ="},"T":{"type":"DT_FLOAT"}}},
          {"name":"model/tf.math.add_39/Add","op":"Add","input":["model/conv2d_22/Conv2D","model/tf.math.add_39/Add/y"],"attr":{"T":{"type":"DT_FLOAT"}}},
          {"name":"model/tf.math.add_40/Add","op":"Add","input":["model/tf.math.add_39/Add","model/tf.math.add_34/Add"],"attr":{"T":{"type":"DT_FLOAT"}}},
          {"name":"model/conv2d_23/Conv2D","op":"Conv2D","input":["model/tf.math.add_40/Add","model/conv2d_23/Conv2D/ReadVariableOp"],"device":"/device:CPU:0","attr":{"use_cudnn_on_gpu":{"b":true},"padding":{"s":"VkFMSUQ="},"dilations":{"list":{"i":["1","1","1","1"]}},"strides":{"list":{"i":["1","1","1","1"]}},"data_format":{"s":"TkhXQw=="},"explicit_paddings":{"list":{}},"T":{"type":"DT_FLOAT"}}},
          {"name":"model/tf.math.add_41/Add","op":"Add","input":["model/conv2d_23/Conv2D","model/tf.math.add_41/Add/y"],"attr":{"T":{"type":"DT_FLOAT"}}},
          {"name":"model/tf.math.add_42/Add","op":"Add","input":["model/tf.math.add_41/Add","model/tf.math.add_42/Add/y"],"attr":{"T":{"type":"DT_FLOAT"}}},
          {"name":"model/tf.nn.relu6_7/Relu6","op":"Relu6","input":["model/tf.math.add_42/Add"],"attr":{"T":{"type":"DT_FLOAT"}}},
          {"name":"model/tf.math.multiply_11/Mul","op":"Mul","input":["model/tf.math.add_41/Add","model/tf.nn.relu6_7/Relu6"],"attr":{"T":{"type":"DT_FLOAT"}}},
          {"name":"model/zero_padding2d_9/Pad","op":"Pad","input":["model/tf.math.multiply_11/Mul","model/zero_padding2d_9/Pad/paddings"],"attr":{"T":{"type":"DT_FLOAT"},"Tpaddings":{"type":"DT_INT32"}}},
          {"name":"model/depthwise_conv2d_8/depthwise","op":"DepthwiseConv2dNative","input":["model/zero_padding2d_9/Pad","model/depthwise_conv2d_8/depthwise/ReadVariableOp"],"attr":{"data_format":{"s":"TkhXQw=="},"dilations":{"list":{"i":["1","1","1","1"]}},"explicit_paddings":{"list":{}},"strides":{"list":{"i":["1","1","1","1"]}},"T":{"type":"DT_FLOAT"},"padding":{"s":"VkFMSUQ="}}},
          {"name":"model/tf.math.add_43/Add","op":"Add","input":["model/depthwise_conv2d_8/depthwise","model/tf.math.add_43/Add/y"],"attr":{"T":{"type":"DT_FLOAT"}}},
          {"name":"model/tf.math.add_44/Add","op":"Add","input":["model/tf.math.add_43/Add","model/tf.math.add_44/Add/y"],"attr":{"T":{"type":"DT_FLOAT"}}},
          {"name":"model/tf.nn.relu6_8/Relu6","op":"Relu6","input":["model/tf.math.add_44/Add"],"attr":{"T":{"type":"DT_FLOAT"}}},
          {"name":"model/tf.math.multiply_12/Mul","op":"Mul","input":["model/tf.math.add_43/Add","model/tf.nn.relu6_8/Relu6"],"attr":{"T":{"type":"DT_FLOAT"}}},
          {"name":"model/conv2d_24/Conv2D","op":"Conv2D","input":["model/tf.math.multiply_12/Mul","model/conv2d_24/Conv2D/ReadVariableOp"],"device":"/device:CPU:0","attr":{"data_format":{"s":"TkhXQw=="},"T":{"type":"DT_FLOAT"},"use_cudnn_on_gpu":{"b":true},"dilations":{"list":{"i":["1","1","1","1"]}},"strides":{"list":{"i":["1","1","1","1"]}},"explicit_paddings":{"list":{}},"padding":{"s":"VkFMSUQ="}}},
          {"name":"model/tf.math.add_45/Add","op":"Add","input":["model/conv2d_24/Conv2D","model/tf.math.add_45/Add/y"],"attr":{"T":{"type":"DT_FLOAT"}}},
          {"name":"model/tf.math.add_46/Add","op":"Add","input":["model/tf.math.add_45/Add","model/tf.math.add_40/Add"],"attr":{"T":{"type":"DT_FLOAT"}}},
          {"name":"model/conv2d_25/Conv2D","op":"Conv2D","input":["model/tf.math.add_46/Add","model/conv2d_25/Conv2D/ReadVariableOp"],"device":"/device:CPU:0","attr":{"use_cudnn_on_gpu":{"b":true},"strides":{"list":{"i":["1","1","1","1"]}},"explicit_paddings":{"list":{}},"data_format":{"s":"TkhXQw=="},"padding":{"s":"VkFMSUQ="},"T":{"type":"DT_FLOAT"},"dilations":{"list":{"i":["1","1","1","1"]}}}},
          {"name":"model/tf.math.add_47/Add","op":"Add","input":["model/conv2d_25/Conv2D","model/tf.math.add_47/Add/y"],"attr":{"T":{"type":"DT_FLOAT"}}},
          {"name":"model/tf.math.add_48/Add","op":"Add","input":["model/tf.math.add_47/Add","model/tf.math.add_48/Add/y"],"attr":{"T":{"type":"DT_FLOAT"}}},
          {"name":"model/tf.nn.relu6_9/Relu6","op":"Relu6","input":["model/tf.math.add_48/Add"],"attr":{"T":{"type":"DT_FLOAT"}}},
          {"name":"model/tf.math.multiply_13/Mul","op":"Mul","input":["model/tf.math.add_47/Add","model/tf.nn.relu6_9/Relu6"],"attr":{"T":{"type":"DT_FLOAT"}}},
          {"name":"model/zero_padding2d_10/Pad","op":"Pad","input":["model/tf.math.multiply_13/Mul","model/zero_padding2d_10/Pad/paddings"],"attr":{"Tpaddings":{"type":"DT_INT32"},"T":{"type":"DT_FLOAT"}}},
          {"name":"model/depthwise_conv2d_9/depthwise","op":"DepthwiseConv2dNative","input":["model/zero_padding2d_10/Pad","model/depthwise_conv2d_9/depthwise/ReadVariableOp"],"attr":{"explicit_paddings":{"list":{}},"padding":{"s":"VkFMSUQ="},"data_format":{"s":"TkhXQw=="},"strides":{"list":{"i":["1","1","1","1"]}},"dilations":{"list":{"i":["1","1","1","1"]}},"T":{"type":"DT_FLOAT"}}},
          {"name":"model/tf.math.add_49/Add","op":"Add","input":["model/depthwise_conv2d_9/depthwise","model/tf.math.add_49/Add/y"],"attr":{"T":{"type":"DT_FLOAT"}}},
          {"name":"model/tf.math.add_50/Add","op":"Add","input":["model/tf.math.add_49/Add","model/tf.math.add_50/Add/y"],"attr":{"T":{"type":"DT_FLOAT"}}},
          {"name":"model/tf.nn.relu6_10/Relu6","op":"Relu6","input":["model/tf.math.add_50/Add"],"attr":{"T":{"type":"DT_FLOAT"}}},
          {"name":"model/tf.math.multiply_14/Mul","op":"Mul","input":["model/tf.math.add_49/Add","model/tf.nn.relu6_10/Relu6"],"attr":{"T":{"type":"DT_FLOAT"}}},
          {"name":"model/conv2d_26/Conv2D","op":"Conv2D","input":["model/tf.math.multiply_14/Mul","model/conv2d_26/Conv2D/ReadVariableOp"],"device":"/device:CPU:0","attr":{"dilations":{"list":{"i":["1","1","1","1"]}},"use_cudnn_on_gpu":{"b":true},"strides":{"list":{"i":["1","1","1","1"]}},"padding":{"s":"VkFMSUQ="},"T":{"type":"DT_FLOAT"},"data_format":{"s":"TkhXQw=="},"explicit_paddings":{"list":{}}}},
          {"name":"model/tf.math.add_51/Add","op":"Add","input":["model/conv2d_26/Conv2D","model/tf.math.add_51/Add/y"],"attr":{"T":{"type":"DT_FLOAT"}}},
          {"name":"model/tf.math.add_52/Add","op":"Add","input":["model/tf.math.add_51/Add","model/tf.math.add_46/Add"],"attr":{"T":{"type":"DT_FLOAT"}}},
          {"name":"model/conv2d_27/Conv2D","op":"Conv2D","input":["model/tf.math.add_52/Add","model/conv2d_27/Conv2D/ReadVariableOp"],"device":"/device:CPU:0","attr":{"strides":{"list":{"i":["1","1","1","1"]}},"padding":{"s":"VkFMSUQ="},"T":{"type":"DT_FLOAT"},"use_cudnn_on_gpu":{"b":true},"explicit_paddings":{"list":{}},"dilations":{"list":{"i":["1","1","1","1"]}},"data_format":{"s":"TkhXQw=="}}},
          {"name":"model/conv2d_31/Conv2D","op":"Conv2D","input":["model/tf.math.add_52/Add","model/conv2d_31/Conv2D/ReadVariableOp"],"device":"/device:CPU:0","attr":{"strides":{"list":{"i":["1","1","1","1"]}},"T":{"type":"DT_FLOAT"},"padding":{"s":"VkFMSUQ="},"data_format":{"s":"TkhXQw=="},"dilations":{"list":{"i":["1","1","1","1"]}},"explicit_paddings":{"list":{}},"use_cudnn_on_gpu":{"b":true}}},
          {"name":"model/tf.math.add_53/Add","op":"Add","input":["model/conv2d_27/Conv2D","model/tf.math.add_53/Add/y"],"attr":{"T":{"type":"DT_FLOAT"}}},
          {"name":"model/tf.math.add_60/Add","op":"Add","input":["model/conv2d_31/Conv2D","model/tf.math.add_60/Add/y"],"attr":{"T":{"type":"DT_FLOAT"}}},
          {"name":"model/tf.math.add_54/Add","op":"Add","input":["model/tf.math.add_53/Add","model/tf.math.add_54/Add/y"],"attr":{"T":{"type":"DT_FLOAT"}}},
          {"name":"model/tf.nn.relu6_11/Relu6","op":"Relu6","input":["model/tf.math.add_54/Add"],"attr":{"T":{"type":"DT_FLOAT"}}},
          {"name":"model/tf.math.multiply_15/Mul","op":"Mul","input":["model/tf.math.add_53/Add","model/tf.nn.relu6_11/Relu6"],"attr":{"T":{"type":"DT_FLOAT"}}},
          {"name":"model/zero_padding2d_11/Pad","op":"Pad","input":["model/tf.math.multiply_15/Mul","model/zero_padding2d_11/Pad/paddings"],"attr":{"Tpaddings":{"type":"DT_INT32"},"T":{"type":"DT_FLOAT"}}},
          {"name":"model/depthwise_conv2d_10/depthwise","op":"DepthwiseConv2dNative","input":["model/zero_padding2d_11/Pad","model/depthwise_conv2d_10/depthwise/ReadVariableOp"],"attr":{"strides":{"list":{"i":["1","1","1","1"]}},"data_format":{"s":"TkhXQw=="},"T":{"type":"DT_FLOAT"},"padding":{"s":"VkFMSUQ="},"dilations":{"list":{"i":["1","1","1","1"]}},"explicit_paddings":{"list":{}}}},
          {"name":"model/tf.math.add_55/Add","op":"Add","input":["model/depthwise_conv2d_10/depthwise","model/tf.math.add_55/Add/y"],"attr":{"T":{"type":"DT_FLOAT"}}},
          {"name":"model/tf.math.add_56/Add","op":"Add","input":["model/tf.math.add_55/Add","model/tf.math.add_56/Add/y"],"attr":{"T":{"type":"DT_FLOAT"}}},
          {"name":"model/tf.nn.relu6_12/Relu6","op":"Relu6","input":["model/tf.math.add_56/Add"],"attr":{"T":{"type":"DT_FLOAT"}}},
          {"name":"model/tf.math.multiply_16/Mul","op":"Mul","input":["model/tf.math.add_55/Add","model/tf.nn.relu6_12/Relu6"],"attr":{"T":{"type":"DT_FLOAT"}}},
          {"name":"model/conv2d_28/Conv2D","op":"Conv2D","input":["model/tf.math.multiply_16/Mul","model/conv2d_28/Conv2D/ReadVariableOp"],"device":"/device:CPU:0","attr":{"padding":{"s":"VkFMSUQ="},"strides":{"list":{"i":["1","1","1","1"]}},"explicit_paddings":{"list":{}},"data_format":{"s":"TkhXQw=="},"dilations":{"list":{"i":["1","1","1","1"]}},"T":{"type":"DT_FLOAT"},"use_cudnn_on_gpu":{"b":true}}},
          {"name":"model/tf.math.add_57/Add","op":"Add","input":["model/conv2d_28/Conv2D","model/tf.math.add_57/Add/y"],"attr":{"T":{"type":"DT_FLOAT"}}},
          {"name":"model/tf.math.reduce_mean_3/Mean","op":"Mean","input":["model/tf.math.add_57/Add","model/tf.math.reduce_mean_3/Mean/reduction_indices"],"attr":{"keep_dims":{"b":true},"Tidx":{"type":"DT_INT32"},"T":{"type":"DT_FLOAT"}}},
          {"name":"model/conv2d_29/Conv2D","op":"Conv2D","input":["model/tf.math.reduce_mean_3/Mean","model/conv2d_29/Conv2D/ReadVariableOp"],"device":"/device:CPU:0","attr":{"padding":{"s":"VkFMSUQ="},"use_cudnn_on_gpu":{"b":true},"explicit_paddings":{"list":{}},"strides":{"list":{"i":["1","1","1","1"]}},"dilations":{"list":{"i":["1","1","1","1"]}},"T":{"type":"DT_FLOAT"},"data_format":{"s":"TkhXQw=="}}},
          {"name":"model/tf.math.add_58/Add","op":"Add","input":["model/conv2d_29/Conv2D","model/tf.math.add_58/Add/y"],"attr":{"T":{"type":"DT_FLOAT"}}},
          {"name":"model/tf.nn.relu_16/Relu","op":"Relu","input":["model/tf.math.add_58/Add"],"attr":{"T":{"type":"DT_FLOAT"}}},
          {"name":"model/conv2d_30/Conv2D","op":"Conv2D","input":["model/tf.nn.relu_16/Relu","model/conv2d_30/Conv2D/ReadVariableOp"],"device":"/device:CPU:0","attr":{"dilations":{"list":{"i":["1","1","1","1"]}},"explicit_paddings":{"list":{}},"strides":{"list":{"i":["1","1","1","1"]}},"data_format":{"s":"TkhXQw=="},"T":{"type":"DT_FLOAT"},"use_cudnn_on_gpu":{"b":true},"padding":{"s":"VkFMSUQ="}}},
          {"name":"model/tf.math.add_59/Add","op":"Add","input":["model/conv2d_30/Conv2D","model/tf.math.add_59/Add/y"],"attr":{"T":{"type":"DT_FLOAT"}}},
          {"name":"model/tf.nn.relu6_13/Relu6","op":"Relu6","input":["model/tf.math.add_59/Add"],"attr":{"T":{"type":"DT_FLOAT"}}},
          {"name":"model/tf.math.multiply_17/Mul","op":"Mul","input":["model/tf.math.multiply_17/Mul/y","model/tf.nn.relu6_13/Relu6"],"attr":{"T":{"type":"DT_FLOAT"},"_grappler_ArithmeticOptimizer_MinimizeBroadcasts":{"b":true}}},
          {"name":"model/tf.math.multiply_18/Mul","op":"Mul","input":["model/tf.math.multiply_17/Mul","model/tf.math.add_57/Add"],"attr":{"T":{"type":"DT_FLOAT"},"_grappler_ArithmeticOptimizer_MinimizeBroadcasts":{"b":true}}},
          {"name":"model/tf.math.add_61/Add","op":"Add","input":["model/tf.math.multiply_18/Mul","model/tf.math.add_60/Add"],"attr":{"T":{"type":"DT_FLOAT"}}},
          {"name":"model/conv2d_32/Conv2D","op":"Conv2D","input":["model/tf.math.add_61/Add","model/conv2d_32/Conv2D/ReadVariableOp"],"device":"/device:CPU:0","attr":{"explicit_paddings":{"list":{}},"use_cudnn_on_gpu":{"b":true},"dilations":{"list":{"i":["1","1","1","1"]}},"strides":{"list":{"i":["1","1","1","1"]}},"data_format":{"s":"TkhXQw=="},"padding":{"s":"VkFMSUQ="},"T":{"type":"DT_FLOAT"}}},
          {"name":"model/tf.math.add_62/Add","op":"Add","input":["model/conv2d_32/Conv2D","model/tf.math.add_62/Add/y"],"attr":{"T":{"type":"DT_FLOAT"}}},
          {"name":"model/tf.math.add_63/Add","op":"Add","input":["model/tf.math.add_62/Add","model/tf.math.add_63/Add/y"],"attr":{"T":{"type":"DT_FLOAT"}}},
          {"name":"model/tf.nn.relu6_14/Relu6","op":"Relu6","input":["model/tf.math.add_63/Add"],"attr":{"T":{"type":"DT_FLOAT"}}},
          {"name":"model/tf.math.multiply_19/Mul","op":"Mul","input":["model/tf.math.add_62/Add","model/tf.nn.relu6_14/Relu6"],"attr":{"T":{"type":"DT_FLOAT"}}},
          {"name":"model/zero_padding2d_12/Pad","op":"Pad","input":["model/tf.math.multiply_19/Mul","model/zero_padding2d_12/Pad/paddings"],"attr":{"Tpaddings":{"type":"DT_INT32"},"T":{"type":"DT_FLOAT"}}},
          {"name":"model/depthwise_conv2d_11/depthwise","op":"DepthwiseConv2dNative","input":["model/zero_padding2d_12/Pad","model/depthwise_conv2d_11/depthwise/ReadVariableOp"],"attr":{"explicit_paddings":{"list":{}},"strides":{"list":{"i":["1","1","1","1"]}},"padding":{"s":"VkFMSUQ="},"data_format":{"s":"TkhXQw=="},"T":{"type":"DT_FLOAT"},"dilations":{"list":{"i":["1","1","1","1"]}}}},
          {"name":"model/tf.math.add_64/Add","op":"Add","input":["model/depthwise_conv2d_11/depthwise","model/tf.math.add_64/Add/y"],"attr":{"T":{"type":"DT_FLOAT"}}},
          {"name":"model/tf.math.add_65/Add","op":"Add","input":["model/tf.math.add_64/Add","model/tf.math.add_65/Add/y"],"attr":{"T":{"type":"DT_FLOAT"}}},
          {"name":"model/tf.nn.relu6_15/Relu6","op":"Relu6","input":["model/tf.math.add_65/Add"],"attr":{"T":{"type":"DT_FLOAT"}}},
          {"name":"model/tf.math.multiply_20/Mul","op":"Mul","input":["model/tf.math.add_64/Add","model/tf.nn.relu6_15/Relu6"],"attr":{"T":{"type":"DT_FLOAT"}}},
          {"name":"model/conv2d_33/Conv2D","op":"Conv2D","input":["model/tf.math.multiply_20/Mul","model/conv2d_33/Conv2D/ReadVariableOp"],"device":"/device:CPU:0","attr":{"explicit_paddings":{"list":{}},"dilations":{"list":{"i":["1","1","1","1"]}},"T":{"type":"DT_FLOAT"},"padding":{"s":"VkFMSUQ="},"data_format":{"s":"TkhXQw=="},"strides":{"list":{"i":["1","1","1","1"]}},"use_cudnn_on_gpu":{"b":true}}},
          {"name":"model/tf.math.add_66/Add","op":"Add","input":["model/conv2d_33/Conv2D","model/tf.math.add_66/Add/y"],"attr":{"T":{"type":"DT_FLOAT"}}},
          {"name":"model/tf.math.reduce_mean_4/Mean","op":"Mean","input":["model/tf.math.add_66/Add","model/tf.math.reduce_mean_4/Mean/reduction_indices"],"attr":{"keep_dims":{"b":true},"Tidx":{"type":"DT_INT32"},"T":{"type":"DT_FLOAT"}}},
          {"name":"model/conv2d_34/Conv2D","op":"Conv2D","input":["model/tf.math.reduce_mean_4/Mean","model/conv2d_34/Conv2D/ReadVariableOp"],"device":"/device:CPU:0","attr":{"data_format":{"s":"TkhXQw=="},"use_cudnn_on_gpu":{"b":true},"padding":{"s":"VkFMSUQ="},"dilations":{"list":{"i":["1","1","1","1"]}},"T":{"type":"DT_FLOAT"},"explicit_paddings":{"list":{}},"strides":{"list":{"i":["1","1","1","1"]}}}},
          {"name":"model/tf.math.add_67/Add","op":"Add","input":["model/conv2d_34/Conv2D","model/tf.math.add_67/Add/y"],"attr":{"T":{"type":"DT_FLOAT"}}},
          {"name":"model/tf.nn.relu_17/Relu","op":"Relu","input":["model/tf.math.add_67/Add"],"attr":{"T":{"type":"DT_FLOAT"}}},
          {"name":"model/conv2d_35/Conv2D","op":"Conv2D","input":["model/tf.nn.relu_17/Relu","model/conv2d_35/Conv2D/ReadVariableOp"],"device":"/device:CPU:0","attr":{"T":{"type":"DT_FLOAT"},"use_cudnn_on_gpu":{"b":true},"strides":{"list":{"i":["1","1","1","1"]}},"explicit_paddings":{"list":{}},"padding":{"s":"VkFMSUQ="},"data_format":{"s":"TkhXQw=="},"dilations":{"list":{"i":["1","1","1","1"]}}}},
          {"name":"model/tf.math.add_68/Add","op":"Add","input":["model/conv2d_35/Conv2D","model/tf.math.add_68/Add/y"],"attr":{"T":{"type":"DT_FLOAT"}}},
          {"name":"model/tf.nn.relu6_16/Relu6","op":"Relu6","input":["model/tf.math.add_68/Add"],"attr":{"T":{"type":"DT_FLOAT"}}},
          {"name":"model/tf.math.multiply_21/Mul","op":"Mul","input":["model/tf.math.multiply_21/Mul/y","model/tf.nn.relu6_16/Relu6"],"attr":{"T":{"type":"DT_FLOAT"},"_grappler_ArithmeticOptimizer_MinimizeBroadcasts":{"b":true}}},
          {"name":"model/tf.math.multiply_22/Mul","op":"Mul","input":["model/tf.math.multiply_21/Mul","model/tf.math.add_66/Add"],"attr":{"_grappler_ArithmeticOptimizer_MinimizeBroadcasts":{"b":true},"T":{"type":"DT_FLOAT"}}},
          {"name":"model/tf.math.add_69/Add","op":"Add","input":["model/tf.math.multiply_22/Mul","model/tf.math.add_61/Add"],"attr":{"T":{"type":"DT_FLOAT"}}},
          {"name":"model/conv2d_36/Conv2D","op":"Conv2D","input":["model/tf.math.add_69/Add","model/conv2d_36/Conv2D/ReadVariableOp"],"device":"/device:CPU:0","attr":{"T":{"type":"DT_FLOAT"},"data_format":{"s":"TkhXQw=="},"dilations":{"list":{"i":["1","1","1","1"]}},"strides":{"list":{"i":["1","1","1","1"]}},"use_cudnn_on_gpu":{"b":true},"padding":{"s":"VkFMSUQ="},"explicit_paddings":{"list":{}}}},
          {"name":"model/conv2d_40/Conv2D","op":"Conv2D","input":["model/tf.math.add_69/Add","model/conv2d_40/Conv2D/ReadVariableOp"],"device":"/device:CPU:0","attr":{"explicit_paddings":{"list":{}},"T":{"type":"DT_FLOAT"},"strides":{"list":{"i":["1","1","1","1"]}},"dilations":{"list":{"i":["1","1","1","1"]}},"data_format":{"s":"TkhXQw=="},"use_cudnn_on_gpu":{"b":true},"padding":{"s":"VkFMSUQ="}}},
          {"name":"model/tf.math.add_70/Add","op":"Add","input":["model/conv2d_36/Conv2D","model/tf.math.add_70/Add/y"],"attr":{"T":{"type":"DT_FLOAT"}}},
          {"name":"model/tf.math.add_77/Add","op":"Add","input":["model/conv2d_40/Conv2D","model/tf.math.add_77/Add/y"],"attr":{"T":{"type":"DT_FLOAT"}}},
          {"name":"model/tf.math.add_71/Add","op":"Add","input":["model/tf.math.add_70/Add","model/tf.math.add_71/Add/y"],"attr":{"T":{"type":"DT_FLOAT"}}},
          {"name":"model/tf.nn.relu6_17/Relu6","op":"Relu6","input":["model/tf.math.add_71/Add"],"attr":{"T":{"type":"DT_FLOAT"}}},
          {"name":"model/tf.math.multiply_23/Mul","op":"Mul","input":["model/tf.math.add_70/Add","model/tf.nn.relu6_17/Relu6"],"attr":{"T":{"type":"DT_FLOAT"}}},
          {"name":"model/zero_padding2d_13/Pad","op":"Pad","input":["model/tf.math.multiply_23/Mul","model/zero_padding2d_13/Pad/paddings"],"attr":{"T":{"type":"DT_FLOAT"},"Tpaddings":{"type":"DT_INT32"}}},
          {"name":"model/depthwise_conv2d_12/depthwise","op":"DepthwiseConv2dNative","input":["model/zero_padding2d_13/Pad","model/depthwise_conv2d_12/depthwise/ReadVariableOp"],"attr":{"dilations":{"list":{"i":["1","1","1","1"]}},"strides":{"list":{"i":["1","1","1","1"]}},"explicit_paddings":{"list":{}},"padding":{"s":"VkFMSUQ="},"T":{"type":"DT_FLOAT"},"data_format":{"s":"TkhXQw=="}}},
          {"name":"model/tf.math.add_72/Add","op":"Add","input":["model/depthwise_conv2d_12/depthwise","model/tf.math.add_72/Add/y"],"attr":{"T":{"type":"DT_FLOAT"}}},
          {"name":"model/tf.math.add_73/Add","op":"Add","input":["model/tf.math.add_72/Add","model/tf.math.add_73/Add/y"],"attr":{"T":{"type":"DT_FLOAT"}}},
          {"name":"model/tf.nn.relu6_18/Relu6","op":"Relu6","input":["model/tf.math.add_73/Add"],"attr":{"T":{"type":"DT_FLOAT"}}},
          {"name":"model/tf.math.multiply_24/Mul","op":"Mul","input":["model/tf.math.add_72/Add","model/tf.nn.relu6_18/Relu6"],"attr":{"T":{"type":"DT_FLOAT"}}},
          {"name":"model/conv2d_37/Conv2D","op":"Conv2D","input":["model/tf.math.multiply_24/Mul","model/conv2d_37/Conv2D/ReadVariableOp"],"device":"/device:CPU:0","attr":{"strides":{"list":{"i":["1","1","1","1"]}},"padding":{"s":"VkFMSUQ="},"dilations":{"list":{"i":["1","1","1","1"]}},"T":{"type":"DT_FLOAT"},"data_format":{"s":"TkhXQw=="},"use_cudnn_on_gpu":{"b":true},"explicit_paddings":{"list":{}}}},
          {"name":"model/tf.math.add_74/Add","op":"Add","input":["model/conv2d_37/Conv2D","model/tf.math.add_74/Add/y"],"attr":{"T":{"type":"DT_FLOAT"}}},
          {"name":"model/tf.math.reduce_mean_5/Mean","op":"Mean","input":["model/tf.math.add_74/Add","model/tf.math.reduce_mean_5/Mean/reduction_indices"],"attr":{"Tidx":{"type":"DT_INT32"},"T":{"type":"DT_FLOAT"},"keep_dims":{"b":true}}},
          {"name":"model/conv2d_38/Conv2D","op":"Conv2D","input":["model/tf.math.reduce_mean_5/Mean","model/conv2d_38/Conv2D/ReadVariableOp"],"device":"/device:CPU:0","attr":{"padding":{"s":"VkFMSUQ="},"strides":{"list":{"i":["1","1","1","1"]}},"T":{"type":"DT_FLOAT"},"dilations":{"list":{"i":["1","1","1","1"]}},"use_cudnn_on_gpu":{"b":true},"data_format":{"s":"TkhXQw=="},"explicit_paddings":{"list":{}}}},
          {"name":"model/tf.math.add_75/Add","op":"Add","input":["model/conv2d_38/Conv2D","model/tf.math.add_75/Add/y"],"attr":{"T":{"type":"DT_FLOAT"}}},
          {"name":"model/tf.nn.relu_18/Relu","op":"Relu","input":["model/tf.math.add_75/Add"],"attr":{"T":{"type":"DT_FLOAT"}}},
          {"name":"model/conv2d_39/Conv2D","op":"Conv2D","input":["model/tf.nn.relu_18/Relu","model/conv2d_39/Conv2D/ReadVariableOp"],"device":"/device:CPU:0","attr":{"strides":{"list":{"i":["1","1","1","1"]}},"data_format":{"s":"TkhXQw=="},"dilations":{"list":{"i":["1","1","1","1"]}},"use_cudnn_on_gpu":{"b":true},"T":{"type":"DT_FLOAT"},"explicit_paddings":{"list":{}},"padding":{"s":"VkFMSUQ="}}},
          {"name":"model/tf.math.add_76/Add","op":"Add","input":["model/conv2d_39/Conv2D","model/tf.math.add_76/Add/y"],"attr":{"T":{"type":"DT_FLOAT"}}},
          {"name":"model/tf.nn.relu6_19/Relu6","op":"Relu6","input":["model/tf.math.add_76/Add"],"attr":{"T":{"type":"DT_FLOAT"}}},
          {"name":"model/tf.math.multiply_25/Mul","op":"Mul","input":["model/tf.math.multiply_25/Mul/y","model/tf.nn.relu6_19/Relu6"],"attr":{"_grappler_ArithmeticOptimizer_MinimizeBroadcasts":{"b":true},"T":{"type":"DT_FLOAT"}}},
          {"name":"model/tf.math.multiply_26/Mul","op":"Mul","input":["model/tf.math.multiply_25/Mul","model/tf.math.add_74/Add"],"attr":{"T":{"type":"DT_FLOAT"},"_grappler_ArithmeticOptimizer_MinimizeBroadcasts":{"b":true}}},
          {"name":"model/tf.math.add_78/Add","op":"Add","input":["model/tf.math.multiply_26/Mul","model/tf.math.add_77/Add"],"attr":{"T":{"type":"DT_FLOAT"}}},
          {"name":"model/conv2d_41/Conv2D","op":"Conv2D","input":["model/tf.math.add_78/Add","model/conv2d_41/Conv2D/ReadVariableOp"],"device":"/device:CPU:0","attr":{"data_format":{"s":"TkhXQw=="},"dilations":{"list":{"i":["1","1","1","1"]}},"padding":{"s":"VkFMSUQ="},"explicit_paddings":{"list":{}},"T":{"type":"DT_FLOAT"},"use_cudnn_on_gpu":{"b":true},"strides":{"list":{"i":["1","1","1","1"]}}}},
          {"name":"model/conv2d_53/Conv2D","op":"Conv2D","input":["model/tf.math.add_78/Add","model/conv2d_53/Conv2D/ReadVariableOp"],"device":"/device:CPU:0","attr":{"strides":{"list":{"i":["1","1","1","1"]}},"padding":{"s":"VkFMSUQ="},"T":{"type":"DT_FLOAT"},"data_format":{"s":"TkhXQw=="},"use_cudnn_on_gpu":{"b":true},"explicit_paddings":{"list":{}},"dilations":{"list":{"i":["1","1","1","1"]}}}},
          {"name":"model/tf.math.add_79/Add","op":"Add","input":["model/conv2d_41/Conv2D","model/tf.math.add_79/Add/y"],"attr":{"T":{"type":"DT_FLOAT"}}},
          {"name":"model/tf.math.add_102/Add","op":"Add","input":["model/conv2d_53/Conv2D","model/tf.math.add_102/Add/y"],"attr":{"T":{"type":"DT_FLOAT"}}},
          {"name":"model/tf.math.add_80/Add","op":"Add","input":["model/tf.math.add_79/Add","model/tf.math.add_80/Add/y"],"attr":{"T":{"type":"DT_FLOAT"}}},
          {"name":"model/tf.math.multiply_41/Mul","op":"Mul","input":["model/tf.math.multiply_42/Mul/y","model/tf.math.add_102/Add"],"attr":{"T":{"type":"DT_FLOAT"},"_grappler_ArithmeticOptimizer_MinimizeBroadcasts":{"b":true}}},
          {"name":"model/tf.math.add_103/Add","op":"Add","input":["model/tf.math.add_102/Add","model/tf.math.add_103/Add/y"],"attr":{"T":{"type":"DT_FLOAT"}}},
          {"name":"model/tf.nn.relu6_20/Relu6","op":"Relu6","input":["model/tf.math.add_80/Add"],"attr":{"T":{"type":"DT_FLOAT"}}},
          {"name":"model/tf.nn.relu6_30/Relu6","op":"Relu6","input":["model/tf.math.add_103/Add"],"attr":{"T":{"type":"DT_FLOAT"}}},
          {"name":"model/tf.math.multiply_27/Mul","op":"Mul","input":["model/tf.math.add_79/Add","model/tf.nn.relu6_20/Relu6"],"attr":{"T":{"type":"DT_FLOAT"}}},
          {"name":"model/tf.math.multiply_42/Mul","op":"Mul","input":["model/tf.math.multiply_41/Mul","model/tf.nn.relu6_30/Relu6"],"attr":{"_grappler_ArithmeticOptimizer_MinimizeBroadcasts":{"b":true},"T":{"type":"DT_FLOAT"}}},
          {"name":"model/zero_padding2d_14/Pad","op":"Pad","input":["model/tf.math.multiply_27/Mul","model/zero_padding2d_14/Pad/paddings"],"attr":{"Tpaddings":{"type":"DT_INT32"},"T":{"type":"DT_FLOAT"}}},
          {"name":"model/depthwise_conv2d_13/depthwise","op":"DepthwiseConv2dNative","input":["model/zero_padding2d_14/Pad","model/depthwise_conv2d_13/depthwise/ReadVariableOp"],"attr":{"padding":{"s":"VkFMSUQ="},"dilations":{"list":{"i":["1","1","1","1"]}},"T":{"type":"DT_FLOAT"},"data_format":{"s":"TkhXQw=="},"strides":{"list":{"i":["1","2","2","1"]}},"explicit_paddings":{"list":{}}}},
          {"name":"model/tf.math.add_81/Add","op":"Add","input":["model/depthwise_conv2d_13/depthwise","model/tf.math.add_81/Add/y"],"attr":{"T":{"type":"DT_FLOAT"}}},
          {"name":"model/tf.math.add_82/Add","op":"Add","input":["model/tf.math.add_81/Add","model/tf.math.add_82/Add/y"],"attr":{"T":{"type":"DT_FLOAT"}}},
          {"name":"model/tf.nn.relu6_21/Relu6","op":"Relu6","input":["model/tf.math.add_82/Add"],"attr":{"T":{"type":"DT_FLOAT"}}},
          {"name":"model/tf.math.multiply_28/Mul","op":"Mul","input":["model/tf.math.add_81/Add","model/tf.nn.relu6_21/Relu6"],"attr":{"T":{"type":"DT_FLOAT"}}},
          {"name":"model/conv2d_42/Conv2D","op":"Conv2D","input":["model/tf.math.multiply_28/Mul","model/conv2d_42/Conv2D/ReadVariableOp"],"device":"/device:CPU:0","attr":{"dilations":{"list":{"i":["1","1","1","1"]}},"data_format":{"s":"TkhXQw=="},"use_cudnn_on_gpu":{"b":true},"padding":{"s":"VkFMSUQ="},"T":{"type":"DT_FLOAT"},"explicit_paddings":{"list":{}},"strides":{"list":{"i":["1","1","1","1"]}}}},
          {"name":"model/tf.math.add_83/Add","op":"Add","input":["model/conv2d_42/Conv2D","model/tf.math.add_83/Add/y"],"attr":{"T":{"type":"DT_FLOAT"}}},
          {"name":"model/tf.math.reduce_mean_6/Mean","op":"Mean","input":["model/tf.math.add_83/Add","model/tf.math.reduce_mean_6/Mean/reduction_indices"],"attr":{"keep_dims":{"b":true},"T":{"type":"DT_FLOAT"},"Tidx":{"type":"DT_INT32"}}},
          {"name":"model/conv2d_43/Conv2D","op":"Conv2D","input":["model/tf.math.reduce_mean_6/Mean","model/conv2d_43/Conv2D/ReadVariableOp"],"device":"/device:CPU:0","attr":{"use_cudnn_on_gpu":{"b":true},"dilations":{"list":{"i":["1","1","1","1"]}},"strides":{"list":{"i":["1","1","1","1"]}},"data_format":{"s":"TkhXQw=="},"padding":{"s":"VkFMSUQ="},"T":{"type":"DT_FLOAT"},"explicit_paddings":{"list":{}}}},
          {"name":"model/tf.math.add_84/Add","op":"Add","input":["model/conv2d_43/Conv2D","model/tf.math.add_84/Add/y"],"attr":{"T":{"type":"DT_FLOAT"}}},
          {"name":"model/tf.nn.relu_19/Relu","op":"Relu","input":["model/tf.math.add_84/Add"],"attr":{"T":{"type":"DT_FLOAT"}}},
          {"name":"model/conv2d_44/Conv2D","op":"Conv2D","input":["model/tf.nn.relu_19/Relu","model/conv2d_44/Conv2D/ReadVariableOp"],"device":"/device:CPU:0","attr":{"dilations":{"list":{"i":["1","1","1","1"]}},"explicit_paddings":{"list":{}},"T":{"type":"DT_FLOAT"},"data_format":{"s":"TkhXQw=="},"strides":{"list":{"i":["1","1","1","1"]}},"padding":{"s":"VkFMSUQ="},"use_cudnn_on_gpu":{"b":true}}},
          {"name":"model/tf.math.add_85/Add","op":"Add","input":["model/conv2d_44/Conv2D","model/tf.math.add_85/Add/y"],"attr":{"T":{"type":"DT_FLOAT"}}},
          {"name":"model/tf.nn.relu6_22/Relu6","op":"Relu6","input":["model/tf.math.add_85/Add"],"attr":{"T":{"type":"DT_FLOAT"}}},
          {"name":"model/tf.math.multiply_29/Mul","op":"Mul","input":["model/tf.math.multiply_29/Mul/y","model/tf.nn.relu6_22/Relu6"],"attr":{"_grappler_ArithmeticOptimizer_MinimizeBroadcasts":{"b":true},"T":{"type":"DT_FLOAT"}}},
          {"name":"model/tf.math.multiply_30/Mul","op":"Mul","input":["model/tf.math.multiply_29/Mul","model/tf.math.add_83/Add"],"attr":{"_grappler_ArithmeticOptimizer_MinimizeBroadcasts":{"b":true},"T":{"type":"DT_FLOAT"}}},
          {"name":"model/conv2d_45/Conv2D","op":"Conv2D","input":["model/tf.math.multiply_30/Mul","model/conv2d_45/Conv2D/ReadVariableOp"],"device":"/device:CPU:0","attr":{"use_cudnn_on_gpu":{"b":true},"explicit_paddings":{"list":{}},"dilations":{"list":{"i":["1","1","1","1"]}},"padding":{"s":"VkFMSUQ="},"data_format":{"s":"TkhXQw=="},"T":{"type":"DT_FLOAT"},"strides":{"list":{"i":["1","1","1","1"]}}}},
          {"name":"model/tf.math.add_86/Add","op":"Add","input":["model/conv2d_45/Conv2D","model/tf.math.add_86/Add/y"],"attr":{"T":{"type":"DT_FLOAT"}}},
          {"name":"model/tf.math.add_87/Add","op":"Add","input":["model/tf.math.add_86/Add","model/tf.math.add_87/Add/y"],"attr":{"T":{"type":"DT_FLOAT"}}},
          {"name":"model/tf.nn.relu6_23/Relu6","op":"Relu6","input":["model/tf.math.add_87/Add"],"attr":{"T":{"type":"DT_FLOAT"}}},
          {"name":"model/tf.math.multiply_31/Mul","op":"Mul","input":["model/tf.math.add_86/Add","model/tf.nn.relu6_23/Relu6"],"attr":{"T":{"type":"DT_FLOAT"}}},
          {"name":"model/zero_padding2d_15/Pad","op":"Pad","input":["model/tf.math.multiply_31/Mul","model/zero_padding2d_15/Pad/paddings"],"attr":{"T":{"type":"DT_FLOAT"},"Tpaddings":{"type":"DT_INT32"}}},
          {"name":"model/depthwise_conv2d_14/depthwise","op":"DepthwiseConv2dNative","input":["model/zero_padding2d_15/Pad","model/depthwise_conv2d_14/depthwise/ReadVariableOp"],"attr":{"strides":{"list":{"i":["1","1","1","1"]}},"padding":{"s":"VkFMSUQ="},"explicit_paddings":{"list":{}},"data_format":{"s":"TkhXQw=="},"dilations":{"list":{"i":["1","1","1","1"]}},"T":{"type":"DT_FLOAT"}}},
          {"name":"model/tf.math.add_88/Add","op":"Add","input":["model/depthwise_conv2d_14/depthwise","model/tf.math.add_88/Add/y"],"attr":{"T":{"type":"DT_FLOAT"}}},
          {"name":"model/tf.math.add_89/Add","op":"Add","input":["model/tf.math.add_88/Add","model/tf.math.add_89/Add/y"],"attr":{"T":{"type":"DT_FLOAT"}}},
          {"name":"model/tf.nn.relu6_24/Relu6","op":"Relu6","input":["model/tf.math.add_89/Add"],"attr":{"T":{"type":"DT_FLOAT"}}},
          {"name":"model/tf.math.multiply_32/Mul","op":"Mul","input":["model/tf.math.add_88/Add","model/tf.nn.relu6_24/Relu6"],"attr":{"T":{"type":"DT_FLOAT"}}},
          {"name":"model/conv2d_46/Conv2D","op":"Conv2D","input":["model/tf.math.multiply_32/Mul","model/conv2d_46/Conv2D/ReadVariableOp"],"device":"/device:CPU:0","attr":{"use_cudnn_on_gpu":{"b":true},"explicit_paddings":{"list":{}},"data_format":{"s":"TkhXQw=="},"padding":{"s":"VkFMSUQ="},"T":{"type":"DT_FLOAT"},"strides":{"list":{"i":["1","1","1","1"]}},"dilations":{"list":{"i":["1","1","1","1"]}}}},
          {"name":"model/tf.math.add_90/Add","op":"Add","input":["model/conv2d_46/Conv2D","model/tf.math.add_90/Add/y"],"attr":{"T":{"type":"DT_FLOAT"}}},
          {"name":"model/tf.math.reduce_mean_7/Mean","op":"Mean","input":["model/tf.math.add_90/Add","model/tf.math.reduce_mean_7/Mean/reduction_indices"],"attr":{"keep_dims":{"b":true},"T":{"type":"DT_FLOAT"},"Tidx":{"type":"DT_INT32"}}},
          {"name":"model/conv2d_47/Conv2D","op":"Conv2D","input":["model/tf.math.reduce_mean_7/Mean","model/conv2d_47/Conv2D/ReadVariableOp"],"device":"/device:CPU:0","attr":{"dilations":{"list":{"i":["1","1","1","1"]}},"padding":{"s":"VkFMSUQ="},"use_cudnn_on_gpu":{"b":true},"explicit_paddings":{"list":{}},"T":{"type":"DT_FLOAT"},"strides":{"list":{"i":["1","1","1","1"]}},"data_format":{"s":"TkhXQw=="}}},
          {"name":"model/tf.math.add_91/Add","op":"Add","input":["model/conv2d_47/Conv2D","model/tf.math.add_91/Add/y"],"attr":{"T":{"type":"DT_FLOAT"}}},
          {"name":"model/tf.nn.relu_20/Relu","op":"Relu","input":["model/tf.math.add_91/Add"],"attr":{"T":{"type":"DT_FLOAT"}}},
          {"name":"model/conv2d_48/Conv2D","op":"Conv2D","input":["model/tf.nn.relu_20/Relu","model/conv2d_48/Conv2D/ReadVariableOp"],"device":"/device:CPU:0","attr":{"explicit_paddings":{"list":{}},"padding":{"s":"VkFMSUQ="},"T":{"type":"DT_FLOAT"},"strides":{"list":{"i":["1","1","1","1"]}},"data_format":{"s":"TkhXQw=="},"use_cudnn_on_gpu":{"b":true},"dilations":{"list":{"i":["1","1","1","1"]}}}},
          {"name":"model/tf.math.add_92/Add","op":"Add","input":["model/conv2d_48/Conv2D","model/tf.math.add_92/Add/y"],"attr":{"T":{"type":"DT_FLOAT"}}},
          {"name":"model/tf.nn.relu6_25/Relu6","op":"Relu6","input":["model/tf.math.add_92/Add"],"attr":{"T":{"type":"DT_FLOAT"}}},
          {"name":"model/tf.math.multiply_33/Mul","op":"Mul","input":["model/tf.math.multiply_33/Mul/y","model/tf.nn.relu6_25/Relu6"],"attr":{"T":{"type":"DT_FLOAT"},"_grappler_ArithmeticOptimizer_MinimizeBroadcasts":{"b":true}}},
          {"name":"model/tf.math.multiply_34/Mul","op":"Mul","input":["model/tf.math.multiply_33/Mul","model/tf.math.add_90/Add"],"attr":{"T":{"type":"DT_FLOAT"},"_grappler_ArithmeticOptimizer_MinimizeBroadcasts":{"b":true}}},
          {"name":"model/tf.math.add_93/Add","op":"Add","input":["model/tf.math.multiply_34/Mul","model/tf.math.multiply_30/Mul"],"attr":{"T":{"type":"DT_FLOAT"}}},
          {"name":"model/conv2d_49/Conv2D","op":"Conv2D","input":["model/tf.math.add_93/Add","model/conv2d_49/Conv2D/ReadVariableOp"],"device":"/device:CPU:0","attr":{"dilations":{"list":{"i":["1","1","1","1"]}},"data_format":{"s":"TkhXQw=="},"T":{"type":"DT_FLOAT"},"use_cudnn_on_gpu":{"b":true},"padding":{"s":"VkFMSUQ="},"strides":{"list":{"i":["1","1","1","1"]}},"explicit_paddings":{"list":{}}}},
          {"name":"model/tf.math.add_94/Add","op":"Add","input":["model/conv2d_49/Conv2D","model/tf.math.add_94/Add/y"],"attr":{"T":{"type":"DT_FLOAT"}}},
          {"name":"model/tf.math.add_95/Add","op":"Add","input":["model/tf.math.add_94/Add","model/tf.math.add_95/Add/y"],"attr":{"T":{"type":"DT_FLOAT"}}},
          {"name":"model/tf.nn.relu6_26/Relu6","op":"Relu6","input":["model/tf.math.add_95/Add"],"attr":{"T":{"type":"DT_FLOAT"}}},
          {"name":"model/tf.math.multiply_35/Mul","op":"Mul","input":["model/tf.math.add_94/Add","model/tf.nn.relu6_26/Relu6"],"attr":{"T":{"type":"DT_FLOAT"}}},
          {"name":"model/conv2d_50/Conv2D","op":"Conv2D","input":["model/tf.math.multiply_35/Mul","model/conv2d_50/Conv2D/ReadVariableOp"],"device":"/device:CPU:0","attr":{"strides":{"list":{"i":["1","1","1","1"]}},"T":{"type":"DT_FLOAT"},"explicit_paddings":{"list":{}},"use_cudnn_on_gpu":{"b":true},"data_format":{"s":"TkhXQw=="},"dilations":{"list":{"i":["1","1","1","1"]}},"padding":{"s":"VkFMSUQ="}}},
          {"name":"model/tf.math.add_96/Add","op":"Add","input":["model/conv2d_50/Conv2D","model/tf.math.add_96/Add/y"],"attr":{"T":{"type":"DT_FLOAT"}}},
          {"name":"model/tf.math.add_97/Add","op":"Add","input":["model/tf.math.add_96/Add","model/tf.math.add_97/Add/y"],"attr":{"T":{"type":"DT_FLOAT"}}},
          {"name":"model/tf.nn.relu6_27/Relu6","op":"Relu6","input":["model/tf.math.add_97/Add"],"attr":{"T":{"type":"DT_FLOAT"}}},
          {"name":"model/tf.math.multiply_36/Mul","op":"Mul","input":["model/tf.math.add_96/Add","model/tf.nn.relu6_27/Relu6"],"attr":{"T":{"type":"DT_FLOAT"}}},
          {"name":"model/conv2d_51/Conv2D","op":"Conv2D","input":["model/tf.math.multiply_36/Mul","model/conv2d_51/Conv2D/ReadVariableOp"],"device":"/device:CPU:0","attr":{"strides":{"list":{"i":["1","1","1","1"]}},"padding":{"s":"VkFMSUQ="},"dilations":{"list":{"i":["1","1","1","1"]}},"T":{"type":"DT_FLOAT"},"explicit_paddings":{"list":{}},"use_cudnn_on_gpu":{"b":true},"data_format":{"s":"TkhXQw=="}}},
          {"name":"model/tf.math.add_98/Add","op":"Add","input":["model/conv2d_51/Conv2D","model/tf.math.add_98/Add/y"],"attr":{"T":{"type":"DT_FLOAT"}}},
          {"name":"model/tf.math.multiply_37/Mul","op":"Mul","input":["model/tf.math.multiply_38/Mul/y","model/tf.math.add_98/Add"],"attr":{"_grappler_ArithmeticOptimizer_MinimizeBroadcasts":{"b":true},"T":{"type":"DT_FLOAT"}}},
          {"name":"model/tf.math.add_99/Add","op":"Add","input":["model/tf.math.add_98/Add","model/tf.math.add_99/Add/y"],"attr":{"T":{"type":"DT_FLOAT"}}},
          {"name":"model/tf.nn.relu6_28/Relu6","op":"Relu6","input":["model/tf.math.add_99/Add"],"attr":{"T":{"type":"DT_FLOAT"}}},
          {"name":"model/tf.math.multiply_38/Mul","op":"Mul","input":["model/tf.math.multiply_37/Mul","model/tf.nn.relu6_28/Relu6"],"attr":{"_grappler_ArithmeticOptimizer_MinimizeBroadcasts":{"b":true},"T":{"type":"DT_FLOAT"}}},
          {"name":"model/lambda/ResizeNearestNeighbor","op":"ResizeNearestNeighbor","input":["model/tf.math.multiply_38/Mul","model/lambda/ResizeNearestNeighbor/size"],"attr":{"align_corners":{"b":false},"T":{"type":"DT_FLOAT"},"half_pixel_centers":{"b":false}}},
          {"name":"model/zero_padding2d_16/Pad","op":"Pad","input":["model/lambda/ResizeNearestNeighbor","model/zero_padding2d_16/Pad/paddings"],"attr":{"T":{"type":"DT_FLOAT"},"Tpaddings":{"type":"DT_INT32"}}},
          {"name":"model/conv2d_52/Conv2D","op":"Conv2D","input":["model/zero_padding2d_16/Pad","model/conv2d_52/Conv2D/ReadVariableOp"],"device":"/device:CPU:0","attr":{"use_cudnn_on_gpu":{"b":true},"padding":{"s":"VkFMSUQ="},"explicit_paddings":{"list":{}},"data_format":{"s":"TkhXQw=="},"strides":{"list":{"i":["1","1","1","1"]}},"dilations":{"list":{"i":["1","1","1","1"]}},"T":{"type":"DT_FLOAT"}}},
          {"name":"model/tf.math.add_100/Add","op":"Add","input":["model/conv2d_52/Conv2D","model/tf.math.add_100/Add/y"],"attr":{"T":{"type":"DT_FLOAT"}}},
          {"name":"model/tf.math.multiply_39/Mul","op":"Mul","input":["model/tf.math.multiply_40/Mul/y","model/tf.math.add_100/Add"],"attr":{"_grappler_ArithmeticOptimizer_MinimizeBroadcasts":{"b":true},"T":{"type":"DT_FLOAT"}}},
          {"name":"model/tf.math.add_101/Add","op":"Add","input":["model/tf.math.add_100/Add","model/tf.math.add_101/Add/y"],"attr":{"T":{"type":"DT_FLOAT"}}},
          {"name":"model/tf.nn.relu6_29/Relu6","op":"Relu6","input":["model/tf.math.add_101/Add"],"attr":{"T":{"type":"DT_FLOAT"}}},
          {"name":"model/tf.math.multiply_40/Mul","op":"Mul","input":["model/tf.math.multiply_39/Mul","model/tf.nn.relu6_29/Relu6"],"attr":{"_grappler_ArithmeticOptimizer_MinimizeBroadcasts":{"b":true},"T":{"type":"DT_FLOAT"}}},
          {"name":"model/tf.math.add_104/Add","op":"Add","input":["model/tf.math.multiply_40/Mul","model/tf.math.multiply_42/Mul"],"attr":{"T":{"type":"DT_FLOAT"}}},
          {"name":"model/lambda_1/ResizeNearestNeighbor","op":"ResizeNearestNeighbor","input":["model/tf.math.add_104/Add","model/lambda_1/ResizeNearestNeighbor/size"],"attr":{"T":{"type":"DT_FLOAT"},"align_corners":{"b":false},"half_pixel_centers":{"b":false}}},
          {"name":"model/zero_padding2d_17/Pad","op":"Pad","input":["model/lambda_1/ResizeNearestNeighbor","model/zero_padding2d_17/Pad/paddings"],"attr":{"T":{"type":"DT_FLOAT"},"Tpaddings":{"type":"DT_INT32"}}},
          {"name":"model/conv2d_54/Conv2D","op":"Conv2D","input":["model/zero_padding2d_17/Pad","model/conv2d_54/Conv2D/ReadVariableOp"],"device":"/device:CPU:0","attr":{"use_cudnn_on_gpu":{"b":true},"dilations":{"list":{"i":["1","1","1","1"]}},"T":{"type":"DT_FLOAT"},"explicit_paddings":{"list":{}},"data_format":{"s":"TkhXQw=="},"strides":{"list":{"i":["1","1","1","1"]}},"padding":{"s":"VkFMSUQ="}}},
          {"name":"model/tf.math.add_105/Add","op":"Add","input":["model/conv2d_54/Conv2D","model/tf.math.add_105/Add/y"],"attr":{"T":{"type":"DT_FLOAT"}}},
          {"name":"model/tf.math.multiply_43/Mul","op":"Mul","input":["model/tf.math.multiply_44/Mul/y","model/tf.math.add_105/Add"],"attr":{"_grappler_ArithmeticOptimizer_MinimizeBroadcasts":{"b":true},"T":{"type":"DT_FLOAT"}}},
          {"name":"model/tf.math.add_106/Add","op":"Add","input":["model/tf.math.add_105/Add","model/tf.math.add_106/Add/y"],"attr":{"T":{"type":"DT_FLOAT"}}},
          {"name":"model/tf.nn.relu6_31/Relu6","op":"Relu6","input":["model/tf.math.add_106/Add"],"attr":{"T":{"type":"DT_FLOAT"}}},
          {"name":"model/tf.math.multiply_44/Mul","op":"Mul","input":["model/tf.math.multiply_43/Mul","model/tf.nn.relu6_31/Relu6"],"attr":{"T":{"type":"DT_FLOAT"},"_grappler_ArithmeticOptimizer_MinimizeBroadcasts":{"b":true}}},
          {"name":"model/tf.math.add_109/Add","op":"Add","input":["model/tf.math.multiply_44/Mul","model/tf.math.multiply_46/Mul"],"attr":{"T":{"type":"DT_FLOAT"}}},
          {"name":"model/lambda_2/ResizeNearestNeighbor","op":"ResizeNearestNeighbor","input":["model/tf.math.add_109/Add","model/lambda_2/ResizeNearestNeighbor/size"],"attr":{"half_pixel_centers":{"b":false},"T":{"type":"DT_FLOAT"},"align_corners":{"b":false}}},
          {"name":"model/zero_padding2d_18/Pad","op":"Pad","input":["model/lambda_2/ResizeNearestNeighbor","model/zero_padding2d_18/Pad/paddings"],"attr":{"T":{"type":"DT_FLOAT"},"Tpaddings":{"type":"DT_INT32"}}},
          {"name":"model/conv2d_56/Conv2D","op":"Conv2D","input":["model/zero_padding2d_18/Pad","model/conv2d_56/Conv2D/ReadVariableOp"],"device":"/device:CPU:0","attr":{"explicit_paddings":{"list":{}},"T":{"type":"DT_FLOAT"},"strides":{"list":{"i":["1","1","1","1"]}},"data_format":{"s":"TkhXQw=="},"use_cudnn_on_gpu":{"b":true},"dilations":{"list":{"i":["1","1","1","1"]}},"padding":{"s":"VkFMSUQ="}}},
          {"name":"model/tf.math.add_110/Add","op":"Add","input":["model/conv2d_56/Conv2D","model/tf.math.add_110/Add/y"],"attr":{"T":{"type":"DT_FLOAT"}}},
          {"name":"model/tf.math.multiply_47/Mul","op":"Mul","input":["model/tf.math.multiply_48/Mul/y","model/tf.math.add_110/Add"],"attr":{"T":{"type":"DT_FLOAT"},"_grappler_ArithmeticOptimizer_MinimizeBroadcasts":{"b":true}}},
          {"name":"model/tf.math.add_111/Add","op":"Add","input":["model/tf.math.add_110/Add","model/tf.math.add_111/Add/y"],"attr":{"T":{"type":"DT_FLOAT"}}},
          {"name":"model/tf.nn.relu6_33/Relu6","op":"Relu6","input":["model/tf.math.add_111/Add"],"attr":{"T":{"type":"DT_FLOAT"}}},
          {"name":"model/tf.math.multiply_48/Mul","op":"Mul","input":["model/tf.math.multiply_47/Mul","model/tf.nn.relu6_33/Relu6"],"attr":{"_grappler_ArithmeticOptimizer_MinimizeBroadcasts":{"b":true},"T":{"type":"DT_FLOAT"}}},
          {"name":"model/tf.math.add_114/Add","op":"Add","input":["model/tf.math.multiply_48/Mul","model/tf.math.multiply_50/Mul"],"attr":{"T":{"type":"DT_FLOAT"}}},
          {"name":"model/zero_padding2d_19/Pad","op":"Pad","input":["model/tf.math.add_114/Add","model/zero_padding2d_19/Pad/paddings"],"attr":{"T":{"type":"DT_FLOAT"},"Tpaddings":{"type":"DT_INT32"}}},
          {"name":"model/zero_padding2d_20/Pad","op":"Pad","input":["model/tf.math.add_114/Add","model/zero_padding2d_20/Pad/paddings"],"attr":{"T":{"type":"DT_FLOAT"},"Tpaddings":{"type":"DT_INT32"}}},
          {"name":"model/conv2d_58/Conv2D","op":"Conv2D","input":["model/zero_padding2d_19/Pad","model/conv2d_58/Conv2D/ReadVariableOp"],"device":"/device:CPU:0","attr":{"data_format":{"s":"TkhXQw=="},"strides":{"list":{"i":["1","1","1","1"]}},"T":{"type":"DT_FLOAT"},"explicit_paddings":{"list":{}},"padding":{"s":"VkFMSUQ="},"dilations":{"list":{"i":["1","1","1","1"]}},"use_cudnn_on_gpu":{"b":true}}},
          {"name":"model/conv2d_59/Conv2D","op":"Conv2D","input":["model/zero_padding2d_20/Pad","model/conv2d_59/Conv2D/ReadVariableOp"],"device":"/device:CPU:0","attr":{"dilations":{"list":{"i":["1","1","1","1"]}},"padding":{"s":"VkFMSUQ="},"T":{"type":"DT_FLOAT"},"data_format":{"s":"TkhXQw=="},"use_cudnn_on_gpu":{"b":true},"explicit_paddings":{"list":{}},"strides":{"list":{"i":["1","1","1","1"]}}}},
          {"name":"model/tf.math.add_115/Add","op":"Add","input":["model/conv2d_58/Conv2D","model/tf.math.add_115/Add/y"],"attr":{"T":{"type":"DT_FLOAT"}}},
          {"name":"model/tf.math.add_117/Add","op":"Add","input":["model/conv2d_59/Conv2D","model/tf.math.add_117/Add/y"],"attr":{"T":{"type":"DT_FLOAT"}}},
          {"name":"model/tf.math.multiply_51/Mul","op":"Mul","input":["model/tf.math.multiply_52/Mul/y","model/tf.math.add_115/Add"],"attr":{"_grappler_ArithmeticOptimizer_MinimizeBroadcasts":{"b":true},"T":{"type":"DT_FLOAT"}}},
          {"name":"model/tf.math.add_116/Add","op":"Add","input":["model/tf.math.add_115/Add","model/tf.math.add_116/Add/y"],"attr":{"T":{"type":"DT_FLOAT"}}},
          {"name":"model/tf.math.multiply_53/Mul","op":"Mul","input":["model/tf.math.multiply_54/Mul/y","model/tf.math.add_117/Add"],"attr":{"T":{"type":"DT_FLOAT"},"_grappler_ArithmeticOptimizer_MinimizeBroadcasts":{"b":true}}},
          {"name":"model/tf.math.add_118/Add","op":"Add","input":["model/tf.math.add_117/Add","model/tf.math.add_118/Add/y"],"attr":{"T":{"type":"DT_FLOAT"}}},
          {"name":"model/tf.nn.relu6_35/Relu6","op":"Relu6","input":["model/tf.math.add_116/Add"],"attr":{"T":{"type":"DT_FLOAT"}}},
          {"name":"model/tf.nn.relu6_36/Relu6","op":"Relu6","input":["model/tf.math.add_118/Add"],"attr":{"T":{"type":"DT_FLOAT"}}},
          {"name":"model/tf.math.multiply_52/Mul","op":"Mul","input":["model/tf.math.multiply_51/Mul","model/tf.nn.relu6_35/Relu6"],"attr":{"_grappler_ArithmeticOptimizer_MinimizeBroadcasts":{"b":true},"T":{"type":"DT_FLOAT"}}},
          {"name":"model/tf.math.multiply_54/Mul","op":"Mul","input":["model/tf.math.multiply_53/Mul","model/tf.nn.relu6_36/Relu6"],"attr":{"_grappler_ArithmeticOptimizer_MinimizeBroadcasts":{"b":true},"T":{"type":"DT_FLOAT"}}},
          {"name":"model/lambda_3/Split","op":"Split","input":["model/lambda_3/Split/split_dim","model/tf.math.multiply_54/Mul"],"attr":{"num_split":{"i":"2"},"T":{"type":"DT_FLOAT"}}},
          {"name":"model/zero_padding2d_21/Pad","op":"Pad","input":["model/lambda_3/Split","model/zero_padding2d_21/Pad/paddings"],"attr":{"Tpaddings":{"type":"DT_INT32"},"T":{"type":"DT_FLOAT"}}},
          {"name":"model/zero_padding2d_22/Pad","op":"Pad","input":["model/lambda_3/Split:1","model/zero_padding2d_22/Pad/paddings"],"attr":{"Tpaddings":{"type":"DT_INT32"},"T":{"type":"DT_FLOAT"}}},
          {"name":"model/conv2d_60/Conv2D","op":"Conv2D","input":["model/zero_padding2d_21/Pad","model/conv2d_60/Conv2D/ReadVariableOp"],"device":"/device:CPU:0","attr":{"dilations":{"list":{"i":["1","1","1","1"]}},"data_format":{"s":"TkhXQw=="},"strides":{"list":{"i":["1","1","1","1"]}},"padding":{"s":"VkFMSUQ="},"use_cudnn_on_gpu":{"b":true},"explicit_paddings":{"list":{}},"T":{"type":"DT_FLOAT"}}},
          {"name":"model/conv2d_61/Conv2D","op":"Conv2D","input":["model/zero_padding2d_22/Pad","model/conv2d_61/Conv2D/ReadVariableOp"],"device":"/device:CPU:0","attr":{"use_cudnn_on_gpu":{"b":true},"explicit_paddings":{"list":{}},"dilations":{"list":{"i":["1","1","1","1"]}},"T":{"type":"DT_FLOAT"},"strides":{"list":{"i":["1","1","1","1"]}},"padding":{"s":"VkFMSUQ="},"data_format":{"s":"TkhXQw=="}}},
          {"name":"model/tf.math.add_119/Add","op":"Add","input":["model/conv2d_60/Conv2D","model/tf.math.add_119/Add/y"],"attr":{"T":{"type":"DT_FLOAT"}}},
          {"name":"model/tf.math.add_121/Add","op":"Add","input":["model/conv2d_61/Conv2D","model/tf.math.add_121/Add/y"],"attr":{"T":{"type":"DT_FLOAT"}}},
          {"name":"model/tf.math.multiply_55/Mul","op":"Mul","input":["model/tf.math.multiply_56/Mul/y","model/tf.math.add_119/Add"],"attr":{"T":{"type":"DT_FLOAT"},"_grappler_ArithmeticOptimizer_MinimizeBroadcasts":{"b":true}}},
          {"name":"model/tf.math.add_120/Add","op":"Add","input":["model/tf.math.add_119/Add","model/tf.math.add_120/Add/y"],"attr":{"T":{"type":"DT_FLOAT"}}},
          {"name":"model/tf.math.add_122/Add","op":"Add","input":["model/tf.math.add_121/Add","model/tf.math.add_122/Add/y"],"attr":{"T":{"type":"DT_FLOAT"}}},
          {"name":"model/tf.nn.relu6_37/Relu6","op":"Relu6","input":["model/tf.math.add_120/Add"],"attr":{"T":{"type":"DT_FLOAT"}}},
          {"name":"model/tf.nn.relu6_38/Relu6","op":"Relu6","input":["model/tf.math.add_122/Add"],"attr":{"T":{"type":"DT_FLOAT"}}},
          {"name":"model/tf.math.multiply_56/Mul","op":"Mul","input":["model/tf.math.multiply_55/Mul","model/tf.nn.relu6_37/Relu6"],"attr":{"T":{"type":"DT_FLOAT"},"_grappler_ArithmeticOptimizer_MinimizeBroadcasts":{"b":true}}},
          {"name":"model/tf.math.multiply_57/Mul","op":"Mul","input":["model/tf.math.add_121/Add","model/tf.nn.relu6_38/Relu6"],"attr":{"T":{"type":"DT_FLOAT"}}},
          {"name":"model/zero_padding2d_23/Pad","op":"Pad","input":["model/tf.math.multiply_57/Mul","model/zero_padding2d_23/Pad/paddings"],"attr":{"T":{"type":"DT_FLOAT"},"Tpaddings":{"type":"DT_INT32"}}},
          {"name":"model/conv2d_62/Conv2D","op":"Conv2D","input":["model/zero_padding2d_23/Pad","model/conv2d_62/Conv2D/ReadVariableOp"],"device":"/device:CPU:0","attr":{"strides":{"list":{"i":["1","1","1","1"]}},"T":{"type":"DT_FLOAT"},"use_cudnn_on_gpu":{"b":true},"data_format":{"s":"TkhXQw=="},"dilations":{"list":{"i":["1","1","1","1"]}},"explicit_paddings":{"list":{}},"padding":{"s":"VkFMSUQ="}}},
          {"name":"model/tf.math.add_123/Add","op":"Add","input":["model/conv2d_62/Conv2D","model/tf.math.add_123/Add/y"],"attr":{"T":{"type":"DT_FLOAT"}}},
          {"name":"model/tf.math.multiply_58/Mul","op":"Mul","input":["model/tf.math.multiply_59/Mul/y","model/tf.math.add_123/Add"],"attr":{"_grappler_ArithmeticOptimizer_MinimizeBroadcasts":{"b":true},"T":{"type":"DT_FLOAT"}}},
          {"name":"model/tf.math.add_124/Add","op":"Add","input":["model/tf.math.add_123/Add","model/tf.math.add_124/Add/y"],"attr":{"T":{"type":"DT_FLOAT"}}},
          {"name":"model/tf.nn.relu6_39/Relu6","op":"Relu6","input":["model/tf.math.add_124/Add"],"attr":{"T":{"type":"DT_FLOAT"}}},
          {"name":"model/tf.math.multiply_59/Mul","op":"Mul","input":["model/tf.math.multiply_58/Mul","model/tf.nn.relu6_39/Relu6"],"attr":{"_grappler_ArithmeticOptimizer_MinimizeBroadcasts":{"b":true},"T":{"type":"DT_FLOAT"}}},
          {"name":"model/tf.concat/concat","op":"ConcatV2","input":["model/tf.math.multiply_52/Mul","model/tf.math.multiply_56/Mul","model/tf.math.multiply_59/Mul","model/tf.concat/concat/axis"],"attr":{"Tidx":{"type":"DT_INT32"},"N":{"i":"3"},"T":{"type":"DT_FLOAT"}}},
          {"name":"model/conv2d_63/Conv2D","op":"Conv2D","input":["model/tf.concat/concat","model/conv2d_63/Conv2D/ReadVariableOp"],"device":"/device:CPU:0","attr":{"T":{"type":"DT_FLOAT"},"strides":{"list":{"i":["1","1","1","1"]}},"data_format":{"s":"TkhXQw=="},"padding":{"s":"VkFMSUQ="},"explicit_paddings":{"list":{}},"use_cudnn_on_gpu":{"b":true},"dilations":{"list":{"i":["1","1","1","1"]}}}},
          {"name":"model/conv2d_64/Conv2D","op":"Conv2D","input":["model/tf.concat/concat","model/conv2d_64/Conv2D/ReadVariableOp"],"device":"/device:CPU:0","attr":{"explicit_paddings":{"list":{}},"padding":{"s":"VkFMSUQ="},"use_cudnn_on_gpu":{"b":true},"T":{"type":"DT_FLOAT"},"strides":{"list":{"i":["1","1","1","1"]}},"data_format":{"s":"TkhXQw=="},"dilations":{"list":{"i":["1","1","1","1"]}}}},
          {"name":"model/conv2d_65/Conv2D","op":"Conv2D","input":["model/tf.concat/concat","model/conv2d_65/Conv2D/ReadVariableOp"],"device":"/device:CPU:0","attr":{"padding":{"s":"VkFMSUQ="},"strides":{"list":{"i":["1","1","1","1"]}},"dilations":{"list":{"i":["1","1","1","1"]}},"explicit_paddings":{"list":{}},"T":{"type":"DT_FLOAT"},"data_format":{"s":"TkhXQw=="},"use_cudnn_on_gpu":{"b":true}}},
          {"name":"model/tf.math.add_125/Add","op":"Add","input":["model/conv2d_63/Conv2D","model/tf.math.add_125/Add/y"],"attr":{"T":{"type":"DT_FLOAT"}}},
          {"name":"model/tf.math.add_126/Add","op":"Add","input":["model/conv2d_64/Conv2D","model/tf.math.add_126/Add/y"],"attr":{"T":{"type":"DT_FLOAT"}}},
          {"name":"model/tf.math.add_127/Add","op":"Add","input":["model/conv2d_65/Conv2D","model/tf.math.add_127/Add/y"],"attr":{"T":{"type":"DT_FLOAT"}}},
          {"name":"Identity","op":"Identity","input":["model/tf.math.add_125/Add"],"attr":{"T":{"type":"DT_FLOAT"}}},
          {"name":"model/tf.math.exp/Exp","op":"Exp","input":["model/tf.math.add_126/Add"],"attr":{"T":{"type":"DT_FLOAT"}}},
          {"name":"model/tf.math.sigmoid/Sigmoid","op":"Sigmoid","input":["model/tf.math.add_127/Add"],"attr":{"T":{"type":"DT_FLOAT"}}},
          {"name":"Identity_1","op":"Identity","input":["model/tf.math.exp/Exp"],"attr":{"T":{"type":"DT_FLOAT"}}},
          {"name":"Identity_2","op":"Identity","input":["model/tf.math.sigmoid/Sigmoid"],"attr":{"T":{"type":"DT_FLOAT"}}}
      ],
      "library": {},
      "versions":
      {
          "producer": 716
      }
  },
  "weightsManifest":
  [
      {
          "paths": ["dbface.bin"],
          "weights": [{"name":"model/conv2d_63/Conv2D/ReadVariableOp","shape":[1,1,48,10],"dtype":"float32","quantization":{"dtype":"float16","original_dtype":"float32"}},{"name":"model/tf.math.add_125/Add/y","shape":[10],"dtype":"float32","quantization":{"dtype":"float16","original_dtype":"float32"}},{"name":"model/conv2d_64/Conv2D/ReadVariableOp","shape":[1,1,48,4],"dtype":"float32","quantization":{"dtype":"float16","original_dtype":"float32"}},{"name":"model/tf.math.add_126/Add/y","shape":[4],"dtype":"float32","quantization":{"dtype":"float16","original_dtype":"float32"}},{"name":"model/tf.math.multiply_52/Mul/y","shape":[1,1,1,1],"dtype":"float32","quantization":{"dtype":"float16","original_dtype":"float32"}},{"name":"model/zero_padding2d_19/Pad/paddings","shape":[4,2],"dtype":"int32"},{"name":"model/conv2d_58/Conv2D/ReadVariableOp","shape":[3,3,24,24],"dtype":"float32","quantization":{"dtype":"float16","original_dtype":"float32"}},{"name":"model/tf.math.add_115/Add/y","shape":[24],"dtype":"float32","quantization":{"dtype":"float16","original_dtype":"float32"}},{"name":"model/tf.math.add_116/Add/y","shape":[1,1,1,1],"dtype":"float32","quantization":{"dtype":"float16","original_dtype":"float32"}},{"name":"model/tf.math.multiply_56/Mul/y","shape":[1,1,1,1],"dtype":"float32","quantization":{"dtype":"float16","original_dtype":"float32"}},{"name":"model/zero_padding2d_21/Pad/paddings","shape":[4,2],"dtype":"int32"},{"name":"model/conv2d_60/Conv2D/ReadVariableOp","shape":[3,3,12,12],"dtype":"float32","quantization":{"dtype":"float16","original_dtype":"float32"}},{"name":"model/tf.math.add_119/Add/y","shape":[12],"dtype":"float32","quantization":{"dtype":"float16","original_dtype":"float32"}},{"name":"model/tf.math.add_120/Add/y","shape":[1,1,1,1],"dtype":"float32","quantization":{"dtype":"float16","original_dtype":"float32"}},{"name":"model/tf.math.multiply_59/Mul/y","shape":[1,1,1,1],"dtype":"float32","quantization":{"dtype":"float16","original_dtype":"float32"}},{"name":"model/lambda_3/Split/split_dim","shape":[],"dtype":"int32"},{"name":"model/tf.math.multiply_54/Mul/y","shape":[1,1,1,1],"dtype":"float32","quantization":{"dtype":"float16","original_dtype":"float32"}},{"name":"model/tf.math.multiply_48/Mul/y","shape":[1,1,1,1],"dtype":"float32","quantization":{"dtype":"float16","original_dtype":"float32"}},{"name":"model/tf.math.multiply_44/Mul/y","shape":[1,1,1,1],"dtype":"float32","quantization":{"dtype":"float16","original_dtype":"float32"}},{"name":"model/tf.math.multiply_40/Mul/y","shape":[1,1,1,1],"dtype":"float32","quantization":{"dtype":"float16","original_dtype":"float32"}},{"name":"model/tf.math.multiply_38/Mul/y","shape":[1,1,1,1],"dtype":"float32","quantization":{"dtype":"float16","original_dtype":"float32"}},{"name":"model/tf.math.multiply_33/Mul/y","shape":[1,1,1,1],"dtype":"float32","quantization":{"dtype":"float16","original_dtype":"float32"}},{"name":"model/tf.math.reduce_mean_7/Mean/reduction_indices","shape":[2],"dtype":"int32"},{"name":"model/conv2d_47/Conv2D/ReadVariableOp","shape":[1,1,160,40],"dtype":"float32","quantization":{"dtype":"float16","original_dtype":"float32"}},{"name":"model/tf.math.add_91/Add/y","shape":[40],"dtype":"float32","quantization":{"dtype":"float16","original_dtype":"float32"}},{"name":"model/conv2d_48/Conv2D/ReadVariableOp","shape":[1,1,40,160],"dtype":"float32","quantization":{"dtype":"float16","original_dtype":"float32"}},{"name":"model/tf.math.add_92/Add/y","shape":[160],"dtype":"float32","quantization":{"dtype":"float16","original_dtype":"float32"}},{"name":"model/conv2d_45/Conv2D/ReadVariableOp","shape":[1,1,160,960],"dtype":"float32","quantization":{"dtype":"float16","original_dtype":"float32"}},{"name":"model/tf.math.add_86/Add/y","shape":[960],"dtype":"float32","quantization":{"dtype":"float16","original_dtype":"float32"}},{"name":"model/tf.math.add_87/Add/y","shape":[1,1,1,1],"dtype":"float32","quantization":{"dtype":"float16","original_dtype":"float32"}},{"name":"model/zero_padding2d_15/Pad/paddings","shape":[4,2],"dtype":"int32"},{"name":"model/depthwise_conv2d_14/depthwise/ReadVariableOp","shape":[5,5,960,1],"dtype":"float32","quantization":{"dtype":"float16","original_dtype":"float32"}},{"name":"model/tf.math.add_88/Add/y","shape":[960],"dtype":"float32","quantization":{"dtype":"float16","original_dtype":"float32"}},{"name":"model/tf.math.add_89/Add/y","shape":[1,1,1,1],"dtype":"float32","quantization":{"dtype":"float16","original_dtype":"float32"}},{"name":"model/conv2d_46/Conv2D/ReadVariableOp","shape":[1,1,960,160],"dtype":"float32","quantization":{"dtype":"float16","original_dtype":"float32"}},{"name":"model/tf.math.add_90/Add/y","shape":[160],"dtype":"float32","quantization":{"dtype":"float16","original_dtype":"float32"}},{"name":"model/tf.math.multiply_29/Mul/y","shape":[1,1,1,1],"dtype":"float32","quantization":{"dtype":"float16","original_dtype":"float32"}},{"name":"model/tf.math.reduce_mean_6/Mean/reduction_indices","shape":[2],"dtype":"int32"},{"name":"model/conv2d_43/Conv2D/ReadVariableOp","shape":[1,1,160,40],"dtype":"float32","quantization":{"dtype":"float16","original_dtype":"float32"}},{"name":"model/tf.math.add_84/Add/y","shape":[40],"dtype":"float32","quantization":{"dtype":"float16","original_dtype":"float32"}},{"name":"model/conv2d_44/Conv2D/ReadVariableOp","shape":[1,1,40,160],"dtype":"float32","quantization":{"dtype":"float16","original_dtype":"float32"}},{"name":"model/tf.math.add_85/Add/y","shape":[160],"dtype":"float32","quantization":{"dtype":"float16","original_dtype":"float32"}},{"name":"model/conv2d_41/Conv2D/ReadVariableOp","shape":[1,1,160,672],"dtype":"float32","quantization":{"dtype":"float16","original_dtype":"float32"}},{"name":"model/tf.math.add_79/Add/y","shape":[672],"dtype":"float32","quantization":{"dtype":"float16","original_dtype":"float32"}},{"name":"model/tf.math.add_80/Add/y","shape":[1,1,1,1],"dtype":"float32","quantization":{"dtype":"float16","original_dtype":"float32"}},{"name":"model/zero_padding2d_14/Pad/paddings","shape":[4,2],"dtype":"int32"},{"name":"model/depthwise_conv2d_13/depthwise/ReadVariableOp","shape":[5,5,672,1],"dtype":"float32","quantization":{"dtype":"float16","original_dtype":"float32"}},{"name":"model/tf.math.add_81/Add/y","shape":[672],"dtype":"float32","quantization":{"dtype":"float16","original_dtype":"float32"}},{"name":"model/tf.math.add_82/Add/y","shape":[1,1,1,1],"dtype":"float32","quantization":{"dtype":"float16","original_dtype":"float32"}},{"name":"model/conv2d_42/Conv2D/ReadVariableOp","shape":[1,1,672,160],"dtype":"float32","quantization":{"dtype":"float16","original_dtype":"float32"}},{"name":"model/tf.math.add_83/Add/y","shape":[160],"dtype":"float32","quantization":{"dtype":"float16","original_dtype":"float32"}},{"name":"model/conv2d_49/Conv2D/ReadVariableOp","shape":[1,1,160,960],"dtype":"float32","quantization":{"dtype":"float16","original_dtype":"float32"}},{"name":"model/tf.math.add_94/Add/y","shape":[960],"dtype":"float32","quantization":{"dtype":"float16","original_dtype":"float32"}},{"name":"model/tf.math.add_95/Add/y","shape":[1,1,1,1],"dtype":"float32","quantization":{"dtype":"float16","original_dtype":"float32"}},{"name":"model/conv2d_50/Conv2D/ReadVariableOp","shape":[1,1,960,320],"dtype":"float32","quantization":{"dtype":"float16","original_dtype":"float32"}},{"name":"model/tf.math.add_96/Add/y","shape":[320],"dtype":"float32","quantization":{"dtype":"float16","original_dtype":"float32"}},{"name":"model/tf.math.add_97/Add/y","shape":[1,1,1,1],"dtype":"float32","quantization":{"dtype":"float16","original_dtype":"float32"}},{"name":"model/conv2d_51/Conv2D/ReadVariableOp","shape":[1,1,320,24],"dtype":"float32","quantization":{"dtype":"float16","original_dtype":"float32"}},{"name":"model/tf.math.add_98/Add/y","shape":[24],"dtype":"float32","quantization":{"dtype":"float16","original_dtype":"float32"}},{"name":"model/tf.math.add_99/Add/y","shape":[1,1,1,1],"dtype":"float32","quantization":{"dtype":"float16","original_dtype":"float32"}},{"name":"model/lambda/ResizeNearestNeighbor/size","shape":[2],"dtype":"int32"},{"name":"model/zero_padding2d_16/Pad/paddings","shape":[4,2],"dtype":"int32"},{"name":"model/conv2d_52/Conv2D/ReadVariableOp","shape":[3,3,24,24],"dtype":"float32","quantization":{"dtype":"float16","original_dtype":"float32"}},{"name":"model/tf.math.add_100/Add/y","shape":[24],"dtype":"float32","quantization":{"dtype":"float16","original_dtype":"float32"}},{"name":"model/tf.math.add_101/Add/y","shape":[1,1,1,1],"dtype":"float32","quantization":{"dtype":"float16","original_dtype":"float32"}},{"name":"model/tf.math.multiply_42/Mul/y","shape":[1,1,1,1],"dtype":"float32","quantization":{"dtype":"float16","original_dtype":"float32"}},{"name":"model/tf.math.multiply_25/Mul/y","shape":[1,1,1,1],"dtype":"float32","quantization":{"dtype":"float16","original_dtype":"float32"}},{"name":"model/tf.math.reduce_mean_5/Mean/reduction_indices","shape":[2],"dtype":"int32"},{"name":"model/conv2d_38/Conv2D/ReadVariableOp","shape":[1,1,160,40],"dtype":"float32","quantization":{"dtype":"float16","original_dtype":"float32"}},{"name":"model/tf.math.add_75/Add/y","shape":[40],"dtype":"float32","quantization":{"dtype":"float16","original_dtype":"float32"}},{"name":"model/conv2d_39/Conv2D/ReadVariableOp","shape":[1,1,40,160],"dtype":"float32","quantization":{"dtype":"float16","original_dtype":"float32"}},{"name":"model/tf.math.add_76/Add/y","shape":[160],"dtype":"float32","quantization":{"dtype":"float16","original_dtype":"float32"}},{"name":"model/conv2d_36/Conv2D/ReadVariableOp","shape":[1,1,112,672],"dtype":"float32","quantization":{"dtype":"float16","original_dtype":"float32"}},{"name":"model/tf.math.add_70/Add/y","shape":[672],"dtype":"float32","quantization":{"dtype":"float16","original_dtype":"float32"}},{"name":"model/tf.math.add_71/Add/y","shape":[1,1,1,1],"dtype":"float32","quantization":{"dtype":"float16","original_dtype":"float32"}},{"name":"model/zero_padding2d_13/Pad/paddings","shape":[4,2],"dtype":"int32"},{"name":"model/depthwise_conv2d_12/depthwise/ReadVariableOp","shape":[5,5,672,1],"dtype":"float32","quantization":{"dtype":"float16","original_dtype":"float32"}},{"name":"model/tf.math.add_72/Add/y","shape":[672],"dtype":"float32","quantization":{"dtype":"float16","original_dtype":"float32"}},{"name":"model/tf.math.add_73/Add/y","shape":[1,1,1,1],"dtype":"float32","quantization":{"dtype":"float16","original_dtype":"float32"}},{"name":"model/conv2d_37/Conv2D/ReadVariableOp","shape":[1,1,672,160],"dtype":"float32","quantization":{"dtype":"float16","original_dtype":"float32"}},{"name":"model/tf.math.add_74/Add/y","shape":[160],"dtype":"float32","quantization":{"dtype":"float16","original_dtype":"float32"}},{"name":"model/tf.math.multiply_21/Mul/y","shape":[1,1,1,1],"dtype":"float32","quantization":{"dtype":"float16","original_dtype":"float32"}},{"name":"model/tf.math.reduce_mean_4/Mean/reduction_indices","shape":[2],"dtype":"int32"},{"name":"model/conv2d_34/Conv2D/ReadVariableOp","shape":[1,1,112,28],"dtype":"float32","quantization":{"dtype":"float16","original_dtype":"float32"}},{"name":"model/tf.math.add_67/Add/y","shape":[28],"dtype":"float32","quantization":{"dtype":"float16","original_dtype":"float32"}},{"name":"model/conv2d_35/Conv2D/ReadVariableOp","shape":[1,1,28,112],"dtype":"float32","quantization":{"dtype":"float16","original_dtype":"float32"}},{"name":"model/tf.math.add_68/Add/y","shape":[112],"dtype":"float32","quantization":{"dtype":"float16","original_dtype":"float32"}},{"name":"model/conv2d_32/Conv2D/ReadVariableOp","shape":[1,1,112,672],"dtype":"float32","quantization":{"dtype":"float16","original_dtype":"float32"}},{"name":"model/tf.math.add_62/Add/y","shape":[672],"dtype":"float32","quantization":{"dtype":"float16","original_dtype":"float32"}},{"name":"model/tf.math.add_63/Add/y","shape":[1,1,1,1],"dtype":"float32","quantization":{"dtype":"float16","original_dtype":"float32"}},{"name":"model/zero_padding2d_12/Pad/paddings","shape":[4,2],"dtype":"int32"},{"name":"model/depthwise_conv2d_11/depthwise/ReadVariableOp","shape":[3,3,672,1],"dtype":"float32","quantization":{"dtype":"float16","original_dtype":"float32"}},{"name":"model/tf.math.add_64/Add/y","shape":[672],"dtype":"float32","quantization":{"dtype":"float16","original_dtype":"float32"}},{"name":"model/tf.math.add_65/Add/y","shape":[1,1,1,1],"dtype":"float32","quantization":{"dtype":"float16","original_dtype":"float32"}},{"name":"model/conv2d_33/Conv2D/ReadVariableOp","shape":[1,1,672,112],"dtype":"float32","quantization":{"dtype":"float16","original_dtype":"float32"}},{"name":"model/tf.math.add_66/Add/y","shape":[112],"dtype":"float32","quantization":{"dtype":"float16","original_dtype":"float32"}},{"name":"model/tf.math.multiply_17/Mul/y","shape":[1,1,1,1],"dtype":"float32","quantization":{"dtype":"float16","original_dtype":"float32"}},{"name":"model/tf.math.reduce_mean_3/Mean/reduction_indices","shape":[2],"dtype":"int32"},{"name":"model/conv2d_29/Conv2D/ReadVariableOp","shape":[1,1,112,28],"dtype":"float32","quantization":{"dtype":"float16","original_dtype":"float32"}},{"name":"model/tf.math.add_58/Add/y","shape":[28],"dtype":"float32","quantization":{"dtype":"float16","original_dtype":"float32"}},{"name":"model/conv2d_30/Conv2D/ReadVariableOp","shape":[1,1,28,112],"dtype":"float32","quantization":{"dtype":"float16","original_dtype":"float32"}},{"name":"model/tf.math.add_59/Add/y","shape":[112],"dtype":"float32","quantization":{"dtype":"float16","original_dtype":"float32"}},{"name":"model/conv2d_27/Conv2D/ReadVariableOp","shape":[1,1,80,480],"dtype":"float32","quantization":{"dtype":"float16","original_dtype":"float32"}},{"name":"model/tf.math.add_53/Add/y","shape":[480],"dtype":"float32","quantization":{"dtype":"float16","original_dtype":"float32"}},{"name":"model/tf.math.add_54/Add/y","shape":[1,1,1,1],"dtype":"float32","quantization":{"dtype":"float16","original_dtype":"float32"}},{"name":"model/zero_padding2d_11/Pad/paddings","shape":[4,2],"dtype":"int32"},{"name":"model/depthwise_conv2d_10/depthwise/ReadVariableOp","shape":[3,3,480,1],"dtype":"float32","quantization":{"dtype":"float16","original_dtype":"float32"}},{"name":"model/tf.math.add_55/Add/y","shape":[480],"dtype":"float32","quantization":{"dtype":"float16","original_dtype":"float32"}},{"name":"model/tf.math.add_56/Add/y","shape":[1,1,1,1],"dtype":"float32","quantization":{"dtype":"float16","original_dtype":"float32"}},{"name":"model/conv2d_28/Conv2D/ReadVariableOp","shape":[1,1,480,112],"dtype":"float32","quantization":{"dtype":"float16","original_dtype":"float32"}},{"name":"model/tf.math.add_57/Add/y","shape":[112],"dtype":"float32","quantization":{"dtype":"float16","original_dtype":"float32"}},{"name":"model/conv2d_25/Conv2D/ReadVariableOp","shape":[1,1,80,184],"dtype":"float32","quantization":{"dtype":"float16","original_dtype":"float32"}},{"name":"model/tf.math.add_47/Add/y","shape":[184],"dtype":"float32","quantization":{"dtype":"float16","original_dtype":"float32"}},{"name":"model/tf.math.add_48/Add/y","shape":[1,1,1,1],"dtype":"float32","quantization":{"dtype":"float16","original_dtype":"float32"}},{"name":"model/zero_padding2d_10/Pad/paddings","shape":[4,2],"dtype":"int32"},{"name":"model/depthwise_conv2d_9/depthwise/ReadVariableOp","shape":[3,3,184,1],"dtype":"float32","quantization":{"dtype":"float16","original_dtype":"float32"}},{"name":"model/tf.math.add_49/Add/y","shape":[184],"dtype":"float32","quantization":{"dtype":"float16","original_dtype":"float32"}},{"name":"model/tf.math.add_50/Add/y","shape":[1,1,1,1],"dtype":"float32","quantization":{"dtype":"float16","original_dtype":"float32"}},{"name":"model/conv2d_26/Conv2D/ReadVariableOp","shape":[1,1,184,80],"dtype":"float32","quantization":{"dtype":"float16","original_dtype":"float32"}},{"name":"model/tf.math.add_51/Add/y","shape":[80],"dtype":"float32","quantization":{"dtype":"float16","original_dtype":"float32"}},{"name":"model/conv2d_23/Conv2D/ReadVariableOp","shape":[1,1,80,184],"dtype":"float32","quantization":{"dtype":"float16","original_dtype":"float32"}},{"name":"model/tf.math.add_41/Add/y","shape":[184],"dtype":"float32","quantization":{"dtype":"float16","original_dtype":"float32"}},{"name":"model/tf.math.add_42/Add/y","shape":[1,1,1,1],"dtype":"float32","quantization":{"dtype":"float16","original_dtype":"float32"}},{"name":"model/zero_padding2d_9/Pad/paddings","shape":[4,2],"dtype":"int32"},{"name":"model/depthwise_conv2d_8/depthwise/ReadVariableOp","shape":[3,3,184,1],"dtype":"float32","quantization":{"dtype":"float16","original_dtype":"float32"}},{"name":"model/tf.math.add_43/Add/y","shape":[184],"dtype":"float32","quantization":{"dtype":"float16","original_dtype":"float32"}},{"name":"model/tf.math.add_44/Add/y","shape":[1,1,1,1],"dtype":"float32","quantization":{"dtype":"float16","original_dtype":"float32"}},{"name":"model/conv2d_24/Conv2D/ReadVariableOp","shape":[1,1,184,80],"dtype":"float32","quantization":{"dtype":"float16","original_dtype":"float32"}},{"name":"model/tf.math.add_45/Add/y","shape":[80],"dtype":"float32","quantization":{"dtype":"float16","original_dtype":"float32"}},{"name":"model/conv2d_21/Conv2D/ReadVariableOp","shape":[1,1,80,200],"dtype":"float32","quantization":{"dtype":"float16","original_dtype":"float32"}},{"name":"model/tf.math.add_35/Add/y","shape":[200],"dtype":"float32","quantization":{"dtype":"float16","original_dtype":"float32"}},{"name":"model/tf.math.add_36/Add/y","shape":[1,1,1,1],"dtype":"float32","quantization":{"dtype":"float16","original_dtype":"float32"}},{"name":"model/zero_padding2d_8/Pad/paddings","shape":[4,2],"dtype":"int32"},{"name":"model/depthwise_conv2d_7/depthwise/ReadVariableOp","shape":[3,3,200,1],"dtype":"float32","quantization":{"dtype":"float16","original_dtype":"float32"}},{"name":"model/tf.math.add_37/Add/y","shape":[200],"dtype":"float32","quantization":{"dtype":"float16","original_dtype":"float32"}},{"name":"model/tf.math.add_38/Add/y","shape":[1,1,1,1],"dtype":"float32","quantization":{"dtype":"float16","original_dtype":"float32"}},{"name":"model/conv2d_22/Conv2D/ReadVariableOp","shape":[1,1,200,80],"dtype":"float32","quantization":{"dtype":"float16","original_dtype":"float32"}},{"name":"model/tf.math.add_39/Add/y","shape":[80],"dtype":"float32","quantization":{"dtype":"float16","original_dtype":"float32"}},{"name":"model/conv2d_19/Conv2D/ReadVariableOp","shape":[1,1,40,240],"dtype":"float32","quantization":{"dtype":"float16","original_dtype":"float32"}},{"name":"model/tf.math.add_30/Add/y","shape":[240],"dtype":"float32","quantization":{"dtype":"float16","original_dtype":"float32"}},{"name":"model/tf.math.add_31/Add/y","shape":[1,1,1,1],"dtype":"float32","quantization":{"dtype":"float16","original_dtype":"float32"}},{"name":"model/zero_padding2d_7/Pad/paddings","shape":[4,2],"dtype":"int32"},{"name":"model/depthwise_conv2d_6/depthwise/ReadVariableOp","shape":[3,3,240,1],"dtype":"float32","quantization":{"dtype":"float16","original_dtype":"float32"}},{"name":"model/tf.math.add_32/Add/y","shape":[240],"dtype":"float32","quantization":{"dtype":"float16","original_dtype":"float32"}},{"name":"model/tf.math.add_33/Add/y","shape":[1,1,1,1],"dtype":"float32","quantization":{"dtype":"float16","original_dtype":"float32"}},{"name":"model/conv2d_20/Conv2D/ReadVariableOp","shape":[1,1,240,80],"dtype":"float32","quantization":{"dtype":"float16","original_dtype":"float32"}},{"name":"model/tf.math.add_34/Add/y","shape":[80],"dtype":"float32","quantization":{"dtype":"float16","original_dtype":"float32"}},{"name":"model/conv2d_31/Conv2D/ReadVariableOp","shape":[1,1,80,112],"dtype":"float32","quantization":{"dtype":"float16","original_dtype":"float32"}},{"name":"model/tf.math.add_60/Add/y","shape":[112],"dtype":"float32","quantization":{"dtype":"float16","original_dtype":"float32"}},{"name":"model/conv2d_40/Conv2D/ReadVariableOp","shape":[1,1,112,160],"dtype":"float32","quantization":{"dtype":"float16","original_dtype":"float32"}},{"name":"model/tf.math.add_77/Add/y","shape":[160],"dtype":"float32","quantization":{"dtype":"float16","original_dtype":"float32"}},{"name":"model/conv2d_53/Conv2D/ReadVariableOp","shape":[1,1,160,24],"dtype":"float32","quantization":{"dtype":"float16","original_dtype":"float32"}},{"name":"model/tf.math.add_102/Add/y","shape":[24],"dtype":"float32","quantization":{"dtype":"float16","original_dtype":"float32"}},{"name":"model/tf.math.add_103/Add/y","shape":[1,1,1,1],"dtype":"float32","quantization":{"dtype":"float16","original_dtype":"float32"}},{"name":"model/lambda_1/ResizeNearestNeighbor/size","shape":[2],"dtype":"int32"},{"name":"model/zero_padding2d_17/Pad/paddings","shape":[4,2],"dtype":"int32"},{"name":"model/conv2d_54/Conv2D/ReadVariableOp","shape":[3,3,24,24],"dtype":"float32","quantization":{"dtype":"float16","original_dtype":"float32"}},{"name":"model/tf.math.add_105/Add/y","shape":[24],"dtype":"float32","quantization":{"dtype":"float16","original_dtype":"float32"}},{"name":"model/tf.math.add_106/Add/y","shape":[1,1,1,1],"dtype":"float32","quantization":{"dtype":"float16","original_dtype":"float32"}},{"name":"model/tf.math.multiply_46/Mul/y","shape":[1,1,1,1],"dtype":"float32","quantization":{"dtype":"float16","original_dtype":"float32"}},{"name":"model/tf.math.multiply_5/Mul/y","shape":[1,1,1,1],"dtype":"float32","quantization":{"dtype":"float16","original_dtype":"float32"}},{"name":"model/tf.math.reduce_mean_2/Mean/reduction_indices","shape":[2],"dtype":"int32"},{"name":"model/conv2d_17/Conv2D/ReadVariableOp","shape":[1,1,40,10],"dtype":"float32","quantization":{"dtype":"float16","original_dtype":"float32"}},{"name":"model/tf.math.add_27/Add/y","shape":[10],"dtype":"float32","quantization":{"dtype":"float16","original_dtype":"float32"}},{"name":"model/conv2d_18/Conv2D/ReadVariableOp","shape":[1,1,10,40],"dtype":"float32","quantization":{"dtype":"float16","original_dtype":"float32"}},{"name":"model/tf.math.add_28/Add/y","shape":[40],"dtype":"float32","quantization":{"dtype":"float16","original_dtype":"float32"}},{"name":"model/conv2d_15/Conv2D/ReadVariableOp","shape":[1,1,40,120],"dtype":"float32","quantization":{"dtype":"float16","original_dtype":"float32"}},{"name":"model/tf.math.add_24/Add/y","shape":[120],"dtype":"float32","quantization":{"dtype":"float16","original_dtype":"float32"}},{"name":"model/zero_padding2d_6/Pad/paddings","shape":[4,2],"dtype":"int32"},{"name":"model/depthwise_conv2d_5/depthwise/ReadVariableOp","shape":[5,5,120,1],"dtype":"float32","quantization":{"dtype":"float16","original_dtype":"float32"}},{"name":"model/tf.math.add_25/Add/y","shape":[120],"dtype":"float32","quantization":{"dtype":"float16","original_dtype":"float32"}},{"name":"model/conv2d_16/Conv2D/ReadVariableOp","shape":[1,1,120,40],"dtype":"float32","quantization":{"dtype":"float16","original_dtype":"float32"}},{"name":"model/tf.math.add_26/Add/y","shape":[40],"dtype":"float32","quantization":{"dtype":"float16","original_dtype":"float32"}},{"name":"model/tf.math.multiply_3/Mul/y","shape":[1,1,1,1],"dtype":"float32","quantization":{"dtype":"float16","original_dtype":"float32"}},{"name":"model/tf.math.reduce_mean_1/Mean/reduction_indices","shape":[2],"dtype":"int32"},{"name":"model/conv2d_13/Conv2D/ReadVariableOp","shape":[1,1,40,10],"dtype":"float32","quantization":{"dtype":"float16","original_dtype":"float32"}},{"name":"model/tf.math.add_21/Add/y","shape":[10],"dtype":"float32","quantization":{"dtype":"float16","original_dtype":"float32"}},{"name":"model/conv2d_14/Conv2D/ReadVariableOp","shape":[1,1,10,40],"dtype":"float32","quantization":{"dtype":"float16","original_dtype":"float32"}},{"name":"model/tf.math.add_22/Add/y","shape":[40],"dtype":"float32","quantization":{"dtype":"float16","original_dtype":"float32"}},{"name":"model/conv2d_11/Conv2D/ReadVariableOp","shape":[1,1,40,120],"dtype":"float32","quantization":{"dtype":"float16","original_dtype":"float32"}},{"name":"model/tf.math.add_18/Add/y","shape":[120],"dtype":"float32","quantization":{"dtype":"float16","original_dtype":"float32"}},{"name":"model/zero_padding2d_5/Pad/paddings","shape":[4,2],"dtype":"int32"},{"name":"model/depthwise_conv2d_4/depthwise/ReadVariableOp","shape":[5,5,120,1],"dtype":"float32","quantization":{"dtype":"float16","original_dtype":"float32"}},{"name":"model/tf.math.add_19/Add/y","shape":[120],"dtype":"float32","quantization":{"dtype":"float16","original_dtype":"float32"}},{"name":"model/conv2d_12/Conv2D/ReadVariableOp","shape":[1,1,120,40],"dtype":"float32","quantization":{"dtype":"float16","original_dtype":"float32"}},{"name":"model/tf.math.add_20/Add/y","shape":[40],"dtype":"float32","quantization":{"dtype":"float16","original_dtype":"float32"}},{"name":"model/tf.math.multiply_1/Mul/y","shape":[1,1,1,1],"dtype":"float32","quantization":{"dtype":"float16","original_dtype":"float32"}},{"name":"model/tf.math.reduce_mean/Mean/reduction_indices","shape":[2],"dtype":"int32"},{"name":"model/conv2d_9/Conv2D/ReadVariableOp","shape":[1,1,40,10],"dtype":"float32","quantization":{"dtype":"float16","original_dtype":"float32"}},{"name":"model/tf.math.add_16/Add/y","shape":[10],"dtype":"float32","quantization":{"dtype":"float16","original_dtype":"float32"}},{"name":"model/conv2d_10/Conv2D/ReadVariableOp","shape":[1,1,10,40],"dtype":"float32","quantization":{"dtype":"float16","original_dtype":"float32"}},{"name":"model/tf.math.add_17/Add/y","shape":[40],"dtype":"float32","quantization":{"dtype":"float16","original_dtype":"float32"}},{"name":"model/conv2d_7/Conv2D/ReadVariableOp","shape":[1,1,24,72],"dtype":"float32","quantization":{"dtype":"float16","original_dtype":"float32"}},{"name":"model/tf.math.add_13/Add/y","shape":[72],"dtype":"float32","quantization":{"dtype":"float16","original_dtype":"float32"}},{"name":"model/zero_padding2d_4/Pad/paddings","shape":[4,2],"dtype":"int32"},{"name":"model/depthwise_conv2d_3/depthwise/ReadVariableOp","shape":[5,5,72,1],"dtype":"float32","quantization":{"dtype":"float16","original_dtype":"float32"}},{"name":"model/tf.math.add_14/Add/y","shape":[72],"dtype":"float32","quantization":{"dtype":"float16","original_dtype":"float32"}},{"name":"model/conv2d_8/Conv2D/ReadVariableOp","shape":[1,1,72,40],"dtype":"float32","quantization":{"dtype":"float16","original_dtype":"float32"}},{"name":"model/tf.math.add_15/Add/y","shape":[40],"dtype":"float32","quantization":{"dtype":"float16","original_dtype":"float32"}},{"name":"model/conv2d_55/Conv2D/ReadVariableOp","shape":[1,1,40,24],"dtype":"float32","quantization":{"dtype":"float16","original_dtype":"float32"}},{"name":"model/tf.math.add_107/Add/y","shape":[24],"dtype":"float32","quantization":{"dtype":"float16","original_dtype":"float32"}},{"name":"model/tf.math.add_108/Add/y","shape":[1,1,1,1],"dtype":"float32","quantization":{"dtype":"float16","original_dtype":"float32"}},{"name":"model/lambda_2/ResizeNearestNeighbor/size","shape":[2],"dtype":"int32"},{"name":"model/zero_padding2d_18/Pad/paddings","shape":[4,2],"dtype":"int32"},{"name":"model/conv2d_56/Conv2D/ReadVariableOp","shape":[3,3,24,24],"dtype":"float32","quantization":{"dtype":"float16","original_dtype":"float32"}},{"name":"model/tf.math.add_110/Add/y","shape":[24],"dtype":"float32","quantization":{"dtype":"float16","original_dtype":"float32"}},{"name":"model/tf.math.add_111/Add/y","shape":[1,1,1,1],"dtype":"float32","quantization":{"dtype":"float16","original_dtype":"float32"}},{"name":"model/tf.math.multiply_50/Mul/y","shape":[1,1,1,1],"dtype":"float32","quantization":{"dtype":"float16","original_dtype":"float32"}},{"name":"model/conv2d_5/Conv2D/ReadVariableOp","shape":[1,1,24,72],"dtype":"float32","quantization":{"dtype":"float16","original_dtype":"float32"}},{"name":"model/tf.math.add_9/Add/y","shape":[72],"dtype":"float32","quantization":{"dtype":"float16","original_dtype":"float32"}},{"name":"model/zero_padding2d_3/Pad/paddings","shape":[4,2],"dtype":"int32"},{"name":"model/depthwise_conv2d_2/depthwise/ReadVariableOp","shape":[3,3,72,1],"dtype":"float32","quantization":{"dtype":"float16","original_dtype":"float32"}},{"name":"model/tf.math.add_10/Add/y","shape":[72],"dtype":"float32","quantization":{"dtype":"float16","original_dtype":"float32"}},{"name":"model/conv2d_6/Conv2D/ReadVariableOp","shape":[1,1,72,24],"dtype":"float32","quantization":{"dtype":"float16","original_dtype":"float32"}},{"name":"model/tf.math.add_11/Add/y","shape":[24],"dtype":"float32","quantization":{"dtype":"float16","original_dtype":"float32"}},{"name":"model/conv2d_1/Conv2D/ReadVariableOp","shape":[1,1,16,16],"dtype":"float32","quantization":{"dtype":"float16","original_dtype":"float32"}},{"name":"model/tf.math.add_2/Add/y","shape":[16],"dtype":"float32","quantization":{"dtype":"float16","original_dtype":"float32"}},{"name":"model/zero_padding2d_1/Pad/paddings","shape":[4,2],"dtype":"int32"},{"name":"model/depthwise_conv2d/depthwise/ReadVariableOp","shape":[3,3,16,1],"dtype":"float32","quantization":{"dtype":"float16","original_dtype":"float32"}},{"name":"model/tf.math.add_3/Add/y","shape":[16],"dtype":"float32","quantization":{"dtype":"float16","original_dtype":"float32"}},{"name":"model/conv2d_2/Conv2D/ReadVariableOp","shape":[1,1,16,16],"dtype":"float32","quantization":{"dtype":"float16","original_dtype":"float32"}},{"name":"model/tf.math.add_4/Add/y","shape":[16],"dtype":"float32","quantization":{"dtype":"float16","original_dtype":"float32"}},{"name":"model/tf.math.multiply/Mul/y","shape":[1,1,1,3],"dtype":"float32","quantization":{"dtype":"float16","original_dtype":"float32"}},{"name":"model/tf.math.add/Add/y","shape":[3],"dtype":"float32","quantization":{"dtype":"float16","original_dtype":"float32"}},{"name":"model/zero_padding2d/Pad/paddings","shape":[4,2],"dtype":"int32"},{"name":"model/conv2d/Conv2D/ReadVariableOp","shape":[3,3,3,16],"dtype":"float32","quantization":{"dtype":"float16","original_dtype":"float32"}},{"name":"model/tf.math.add_1/Add/y","shape":[16],"dtype":"float32","quantization":{"dtype":"float16","original_dtype":"float32"}},{"name":"model/conv2d_3/Conv2D/ReadVariableOp","shape":[1,1,16,64],"dtype":"float32","quantization":{"dtype":"float16","original_dtype":"float32"}},{"name":"model/tf.math.add_6/Add/y","shape":[64],"dtype":"float32","quantization":{"dtype":"float16","original_dtype":"float32"}},{"name":"model/zero_padding2d_2/Pad/paddings","shape":[4,2],"dtype":"int32"},{"name":"model/depthwise_conv2d_1/depthwise/ReadVariableOp","shape":[3,3,64,1],"dtype":"float32","quantization":{"dtype":"float16","original_dtype":"float32"}},{"name":"model/tf.math.add_7/Add/y","shape":[64],"dtype":"float32","quantization":{"dtype":"float16","original_dtype":"float32"}},{"name":"model/conv2d_4/Conv2D/ReadVariableOp","shape":[1,1,64,24],"dtype":"float32","quantization":{"dtype":"float16","original_dtype":"float32"}},{"name":"model/tf.math.add_8/Add/y","shape":[24],"dtype":"float32","quantization":{"dtype":"float16","original_dtype":"float32"}},{"name":"model/conv2d_57/Conv2D/ReadVariableOp","shape":[1,1,24,24],"dtype":"float32","quantization":{"dtype":"float16","original_dtype":"float32"}},{"name":"model/tf.math.add_112/Add/y","shape":[24],"dtype":"float32","quantization":{"dtype":"float16","original_dtype":"float32"}},{"name":"model/tf.math.add_113/Add/y","shape":[1,1,1,1],"dtype":"float32","quantization":{"dtype":"float16","original_dtype":"float32"}},{"name":"model/zero_padding2d_20/Pad/paddings","shape":[4,2],"dtype":"int32"},{"name":"model/conv2d_59/Conv2D/ReadVariableOp","shape":[3,3,24,24],"dtype":"float32","quantization":{"dtype":"float16","original_dtype":"float32"}},{"name":"model/tf.math.add_117/Add/y","shape":[24],"dtype":"float32","quantization":{"dtype":"float16","original_dtype":"float32"}},{"name":"model/tf.math.add_118/Add/y","shape":[1,1,1,1],"dtype":"float32","quantization":{"dtype":"float16","original_dtype":"float32"}},{"name":"model/zero_padding2d_22/Pad/paddings","shape":[4,2],"dtype":"int32"},{"name":"model/conv2d_61/Conv2D/ReadVariableOp","shape":[3,3,12,12],"dtype":"float32","quantization":{"dtype":"float16","original_dtype":"float32"}},{"name":"model/tf.math.add_121/Add/y","shape":[12],"dtype":"float32","quantization":{"dtype":"float16","original_dtype":"float32"}},{"name":"model/tf.math.add_122/Add/y","shape":[1,1,1,1],"dtype":"float32","quantization":{"dtype":"float16","original_dtype":"float32"}},{"name":"model/zero_padding2d_23/Pad/paddings","shape":[4,2],"dtype":"int32"},{"name":"model/conv2d_62/Conv2D/ReadVariableOp","shape":[3,3,12,12],"dtype":"float32","quantization":{"dtype":"float16","original_dtype":"float32"}},{"name":"model/tf.math.add_123/Add/y","shape":[12],"dtype":"float32","quantization":{"dtype":"float16","original_dtype":"float32"}},{"name":"model/tf.math.add_124/Add/y","shape":[1,1,1,1],"dtype":"float32","quantization":{"dtype":"float16","original_dtype":"float32"}},{"name":"model/tf.concat/concat/axis","shape":[],"dtype":"int32"},{"name":"model/conv2d_65/Conv2D/ReadVariableOp","shape":[1,1,48,1],"dtype":"float32","quantization":{"dtype":"float16","original_dtype":"float32"}},{"name":"model/tf.math.add_127/Add/y","shape":[1],"dtype":"float32","quantization":{"dtype":"float16","original_dtype":"float32"}}]
      }
  ]
}